models/Open_Browser.onnx (onnx, 205430 bytes, 9 tensors)

layer1.weight f4 [32, 1536]
00000000: 270e 0f3c 29d0 e4bc 90b8 643b d21d 85bd
00000010: 308a 1fbc aee0 973a 3dce 9cbb f7aa 093c
00000020: 7d71 12bb 2b2b 01bc 2a21 abbc 2406 a03c
00000030: 8f76 1c3b 23a2 723c 9eb7 1fbd 6e58 39bd
00000040: 4fd1 1fbd 1c97 3d3c 4cde 813b 8110 173c
00000050: 66fd 13bd 3e82 c83c 07e2 7dbc d7d5 3a3c
00000060: 10ba fabb 1621 b2bc fddf 003d 9b50 fd3b
00000070: 3f67 803c bd59 65bc f5ef 5fbc e44f bdbb
00000080: 3aba c5bb 710f 143c 4e3e 83bc ea7b 3cbd
00000090: 1280 1fbb e67b 513b f9da b13d 77c7 e2bc
000000a0: 2b77 48bb 6b8b e53b c67b 363c 5c09 e43c
000000b0: 5973 f83b a81f e6bc 2188 ffbb b3ad 0a3c
000000c0: 40bd 173d a26e bf3c a7be 7f3a 3128 ac3c
000000d0: 229e babc 4528 203d eb8d 8d3c e565 883c
000000e0: 8de9 8cbb d239 c83c f690 b43a 4e9a 85bb
000000f0: f6f9 f63b 762a 393c 04b3 acbb 5ccc 36bd
00000100: 354e 0a3c 02b3 8abc 9d81 e7bc 4aeb 60bc
00000110: db35 debc 0cbf 32bd 28c9 a33d 33f9 8f3c
00000120: a768 473d 80c9 823c d370 e33b 1b3b ea3c
00000130: c4be cc3c a151 8cbc a3ae 2cbc aa5e 523c
00000140: 4551 f53c b8ed a139 9298 ec3c 6185 b4bb
00000150: 2ccf a5bc 1342 a53d 3e38 47bc 8068 4a3c
00000160: 46bb 383d 42d4 bebc 6f46 913c c6af bebb
00000170: e1ab 573b 0446 a83c 1912 e2bc 55d6 d7bb
00000180: 67df 56bc 2948 253c dd47 1cbc a136 35bd
00000190: e025 d1bc 91aa 303c fcf9 22bd b4d2 823c
000001a0: 7743 afbd b4af 47bc 447f 373c 0f62 8bbc
000001b0: e21e c7bb 9b36 2abc ebc8 09bc d425 1fbc
000001c0: 1465 e3bc 96d3 c8ba de72 193d 39e0 bf39
000001d0: 8a41 cdbc a003 01bc 727c 893c 36cf a2bc
000001e0: 7a87 38bc 6624 35bc 0cc2 a13c 5555 523c
000001f0: b812 df3c 56a6 a4bb 78d6 8c3b bf73 25bb
00000200: 0e21 5fbb 7fb2 c1bc 5f65 aebb 3218 bd3b
00000210: f729 63bb 3fa5 d53c 948e b63d 785b 06bd
00000220: c862 39bc 61a6 653c 539a d33c 1798 2fbc
00000230: 7cce 70bc 4634 1c3c 36d5 a33b 6ad8 223b
00000240: 10e4 e7bb ec39 a73d 85a2 96bc 82ce 163d
00000250: 3882 c63c 43b8 043d 7801 6b3c a9a2 59bc
00000260: c8d9 c1bc 3c36 89bb fd71 f93c 6e03 3e3b
00000270: 1768 033d 8cce 8dbb 055b eebc 1894 38bc
00000280: 79af bb3c 0c53 25bc 6f1b 013c da9a 0e3c
00000290: b0ad 3f3c 4be6 193d b3c7 bc3b b785 b0bc
000002a0: 5c87 963c fc9f d73c b53d 2cbc eae3 e83c
000002b0: 5b70 fe3b d266 cf3c fa7a be3c 065e 5f3c
000002c0: 85ca a63c 237e febb 90a2 a13b 2edc 423b
000002d0: b005 b2bc ec08 8abb a8ae 463c 7a0a 1b3b
000002e0: c52b 9a3c 4c75 043c e625 0f3c 114c 913c
000002f0: 962e f83c 39ce e8bc babb 4cbd 2c42 bcbc
00000300: ce14 7abc 454e a2bc f40b c6bb 12ec babc
00000310: 13e1 d33b 6bf4 b63c 1bd4 0b3c 5a39 ab3b
00000320: 69de 44bd f7c8 72bc 3c0a 76bc 2bcf 853a
00000330: 3e4e 183b a843 55bc cd20 e4bc 6fad 99bc
00000340: 64da babc c47f 57bc 31c3 533c 29a8 80bb
00000350: bfbf 4ab9 3154 1fb8 2ef1 653c ea4c cfbc
00000360: 7b70 073d f9cd e83c fcbd 21bb 5d66 213d
00000370: 6b35 193d 1688 713d abe7 00bd 9021 633c
00000380: 73f7 d43c f1a0 153b 3790 f1bb bf0b f4bb
00000390: b954 b33b 17ec 1a3c 9550 3e3d 8342 74bc
000003a0: 14e3 21bc 5db0 253d c5f4 c1b9 35b0 76bc
000003b0: 6c56 14bc 40c5 a03a e512 49bd c3b9 ad3a
000003c0: 3bac 623b 188f 8abb d484 173c a28d cabc
000003d0: 9374 0dbc 2b7d 7e3d 9279 93bc fa49 3b3a
000003e0: 2f6e efbc 75a2 84bc 4807 4f3c df81 fc3c
000003f0: c16e 883c ad65 993b 1aa2 fabc 4f35 cc3a
0.0087314015 -0.02793129 0.0034900047 -0.064998284 -0.009737536 0.0011587346 -0.0047853277 0.008402578
-0.0022345476 -0.007883827 -0.020889837 0.019534178 0.0023874377 0.014809164 -0.03899347 -0.04525035
-0.03901797 0.011571672 0.0039632674 0.009220243 -0.03613033 0.024476167 -0.015495784 0.011403522
-0.007651575 -0.021744292 0.031463612 0.007730556 0.015674232 -0.013998446 -0.01366805 -0.005777346
-0.006034163 0.009036885 -0.01602092 -0.04601661 -0.002433781 0.0031964718 0.08684344 -0.027683003
-0.0030588608 0.0070051453 0.011137908 0.027836494 0.00758211 -0.028091267 -0.0077982103 0.008464265
0.037045717 0.023368184 0.00097558874 0.021015259 -0.022780482 0.039100904 0.017279586 0.01665015
-0.0043003024 0.024441633 0.0013776112 -0.0040772324 0.007537122 0.011301627 -0.0052703638 -0.044628486
0.008441498 -0.01693106 -0.028260047 -0.013727972 -0.02712529 -0.043639228 0.07997352 0.017574882
0.04868379 0.015965223 0.00694094 0.028592637 0.024993308 -0.017128767 -0.0105396835 0.0128399525
0.029945979 0.00030885427 0.028881345 -0.005509064 -0.020240389 0.08069243 -0.012159405 0.012354016
0.045100473 -0.023294572 0.01773378 -0.0058192937 0.0032908844 0.020541199 -0.02759652 -0.0065868297
-0.013114787 0.010088005 -0.009538618 -0.04424155 -0.025530756 0.010782854 -0.039789185 0.015969612
-0.0855779 -0.012187887 0.011199776 -0.017014531 -0.0060766796 -0.0103889955 -0.008409719 -0.009713609
-0.027758159 -0.0015321847 0.03746306 0.00036597418 -0.025055666 -0.007874399 0.016782973 -0.019874196
-0.011262769 -0.011056041 0.01974585 0.012837728 0.027230605 -0.0050247116 0.0042980276 -0.0025245992
-0.0034046802 -0.023644684 -0.005322143 0.0057707066 -0.0034662464 0.026079772 0.08913913 -0.032802075
-0.011315055 0.014016719 0.025830423 -0.010717413 -0.014697667 0.009533947 0.004999782 0.002484823
-0.0070767477 0.081653446 -0.018388042 0.036818035 0.024232015 0.03240229 0.014343612 -0.01328341
-0.023663417 -0.0041873734 0.030449862 0.0028993743 0.03208169 -0.004327601 -0.029096136 -0.011265777
0.02291082 -0.010090601 0.007880076 0.008703912 0.011699125 0.03757314 0.0057611107 -0.021548135
0.018375091 0.026321404 -0.010512759 0.02842899 0.0077648587 0.025317583 0.023252 0.013633257
0.02036024 -0.0077665015 0.004932709 0.0029733288 -0.021731228 -0.0042124894 0.012126602 0.0023657368
0.018819699 0.008084606 0.008737063 0.017736467 0.030295651 -0.028418647 -0.049983718 -0.022980772
-0.015263749 -0.019812712 -0.0060439054 -0.022817645 0.00646604 0.022333344 0.008534457 0.0052253427
-0.04806367 -0.014818422 -0.0150170885 0.0010208836 0.0023239995 -0.013016619 -0.027847672 -0.018759457
-0.022809215 -0.01315302 0.012924955 -0.0039262963 -0.00019335652 -3.7986963e-05 0.0140345525 -0.02530523
0.033066254 0.028418528 -0.002467989 0.03940426 0.03740446 0.058967672 -0.031470936 0.013862982
0.0259969 0.0022831524 -0.007371928 -0.0074476893 0.005472746 0.009455702 0.046463568 -0.014908436
-0.0098808 0.040451396 -0.00036994196 -0.0150566595 -0.009053808 0.0012265816 -0.049090285 0.0013254214
0.003458752 -0.004228484 0.009247977 -0.024725739 -0.0086337505 0.06213109 -0.018002305 0.0007144507
-0.029227344 -0.016190747 0.012636013 0.030823646 0.016654374 0.00468131 -0.030594874 0.0015579852

layer1.bias f4 [32]
00000000: 1621 dbbc 3700 693b 2b06 78bb c3a9 ab3c
00000010: 6214 2f3b 0fe2 bfbb 785e 333c 1d7d 04bc
00000020: 0d73 d8bb 8c64 efbc 37d8 7f3c f4e8 82bc
00000030: 99ac 083c f687 ae3b 05ae 01bc fe7c e13c
00000040: c9fc a0bb df35 69bc 2759 abbc 823f b93c
00000050: 7942 59bc eb69 e13c 2773 47bb 7625 e73b
00000060: aeb6 d3bc a3f0 64bc 4e7b 1d3c 2085 6c3c
00000070: db6f 9ebc 180f b93c 4cb9 b7bc d976 ecbc
-0.026749175 0.0035553107 -0.0037845473 0.020954972 0.002671503 -0.0058558057 0.010947816 -0.00808647
-0.006605512 -0.02922275 0.0156155145 -0.015980221 0.008341932 0.0053262664 -0.007915025 0.027525421
-0.004912947 -0.014234035 -0.020916535 0.02261329 -0.013260477 0.027516326 -0.0030433626 0.0070540262
-0.025843944 -0.013973388 0.009611918 0.014436036 -0.019340446 0.022590205 -0.022427224 -0.028865265

layernorm1.weight f4 [32]
00000000: cb2f 803f f3d5 783f 977e 793f eb30 843f
00000010: 9cb1 823f ad57 813f 6062 803f eae2 783f
00000020: ed35 733f 8f5a 803f 0795 883f 08d6 823f
00000030: d997 853f ef8d 783f d004 843f 4da8 7b3f
00000040: 83a2 743f af25 713f a429 833f 6358 7b3f
00000050: 0b0b 703f 908a 833f b134 853f c9aa 843f
00000060: 46d3 7e3f fe04 6d3f 276a 763f f4de 793f
00000070: d245 803f c4fd 803f 8bc1 853f 1c86 783f
1.0014585 0.9720146 0.97458786 1.0327429 1.0210452 1.0104882 1.0030022 0.97221243
0.9500416 1.0027636 1.067048 1.0221567 1.0436965 0.97091573 1.0313969 0.9830368
0.95560473 0.94198126 1.0247083 0.9818174 0.9376685 1.0276661 1.0406705 1.036462
0.9954113 0.9258574 0.96255726 0.97605824 1.0021307 1.0077443 1.044969 0.97079635

layernorm1.bias f4 [32]
00000000: 7ee1 b9bc 11e4 f2bb d7f9 633c 319f 433a
00000010: cd1e 25ba b5f9 0d3c db47 81bc 17d0 70bb
00000020: 07b4 7dbd d202 ccbb 0022 3a3d b4fd 18bb
00000030: 3729 653d b1b1 3dbd 3a1a 4d3c a015 993c
00000040: 52d0 81bc fde7 4ebd bcc0 5c3b f2d5 13bc
00000050: 0636 a5bc 4080 043d b1eb 7b3d f1fb f73c
00000060: 00bc 533c f36b 5bbd 9a2f 21bd 35e6 223c
00000070: 4a65 3f3b f1e1 ffbb 1375 183d f382 acbd
-0.02269053 -0.0074124415 0.013914547 0.0007462381 -0.000629884 0.008665492 -0.015781334 -0.0036745125
-0.061939266 -0.006225922 0.04544258 -0.0023344578 0.05594751 -0.046312038 0.01251846 0.01868707
-0.015846405 -0.05051421 0.0033684215 -0.0090231765 -0.020167362 0.03234887 0.06150407 0.030271502
0.012923241 -0.053569745 -0.039352037 0.009942581 0.002920466 -0.0078089167 0.037221026 -0.08423414

blocks.0.fcn_layer.weight f4 [32, 32]
00000000: 7821 08be 10ca a93d c6c8 9dbd 94e2 fa3d
00000010: e1a5 db3c 4f31 fcbd 3ae8 d83d 1f5c d3bb
00000020: 1654 92bd 42de 40bd 7798 19bd 1b05 d7bd
00000030: 2c26 a03d 6515 6f3d 8367 3a3e 61a9 8e3d
00000040: 84cd 11bd 6bdc e6bd 10c1 46be 8b04 3e3e
00000050: f0b4 db3d 116e 7ebd cf01 023d 03e0 eabd
00000060: ba05 e1bd 308a 3dbd cf6f edbd 424d 64bd
00000070: 4fa3 1fbe 5d93 0a3e a181 dcbd 955f 9e3d
00000080: 896f 38be e606 193d c684 bf3d 7b12 b9bc
00000090: b2e9 0d3e 0395 063d 189b 18be 0b98 a33d
000000a0: 3756 a8bc 2598 25be 08d6 d9bd a251 adbd
000000b0: 3062 a63c 5538 803d 6399 6d3c 5dc5 5fbb
000000c0: 353a fbbd 5548 343d 7007 20bd cdfb b03c
000000d0: 6d3c 283d a055 b43c af0c 92bd 7ddd 03be
000000e0: 4207 42be 8dae e0bd 5204 8fbd 36fa 99bd
000000f0: 825e d3bd abb6 1e3e 996f 95bd 48b1 a33d
00000100: 3e96 11bd 7516 9dbd 39ff 03be e23e 24bc
00000110: f2b5 ac3d d842 743d eb7a 29bd 440d c5bd
00000120: 26f5 65bd 0143 af3c 9a20 e0bc 9d0d 973d
00000130: 9505 9bbd c390 ffbc 2d7a f5bd 603d a13d
00000140: 9b28 d13d 6849 3e3e eeda 0c3e d505 9a3d
00000150: d287 ad3d 20fc 22be 269d fbbd a374 20bb
00000160: 92f9 963d 6226 8dbd 3de3 0bbe 5076 9cbd
00000170: ffaa a4bd 49d7 b03d 2679 26bd 0c5d cb3d
00000180: c9d4 873b 4c51 29bd 7702 123e 76dd 0a3e
00000190: 0d4c 1a3d c717 50be caaf 54be 3f32 293e
000001a0: a3d5 f53d 4c5a 763c 21b4 8fbd 3765 be3d
000001b0: c553 00be e2f3 a43d 3a30 90bd 0f76 f13d
000001c0: 730b 2ebe f833 32bd 3806 fabd 4b24 d03b
000001d0: 16ed 8ebd 2428 153e f6b1 74bd 1f93 07be
000001e0: 8977 01be 59fe 81bd 8583 af3d c9bf 84bd
000001f0: 9b29 a53c cb19 a53d 801e 51be e7ef d53d
00000200: 53a9 163e a94c fbba 3074 753d 93d2 c9ba
00000210: a2ae fdbd f7f5 9a3a 71f0 0abe a6a6 30be
00000220: 6549 bf3d 5c2c c33d 7501 c03d 45f4 403e
00000230: 4e40 203e b5ab 2abd d319 89bd 92c1 013c
00000240: 76bc b5bd 9096 98bd 9ae0 063e 391d 10be
00000250: 29d3 ca3d b197 dcbd e831 203e ae4f 343e
00000260: 32c3 9abc 0a23 dabd 4769 373c a152 ad3d
00000270: 1ff0 f63d 5713 a6bd 534a 223e 04ea 3e3d
00000280: 5cc8 ebbd 6c17 063e 5022 eabd 743c f33c
00000290: 5d9e e4bd d004 dcbd 36e3 f83d 1380 1a3e
000002a0: b7f2 5d3c 9f1c 52bb afdc 723e 03a6 433e
000002b0: 15b7 ce3c 24a8 73bd b6cb 83bd 686a c93d
000002c0: 9ac1 2cbd 31b8 843d 52de 973d 84b0 b2bd
000002d0: e80b fe3b 15a7 6fbd 6c6e 733e 6a6b 583d
000002e0: fbdf 523e 47c0 e1bd fdd1 04be 0db9 aa3c
000002f0: 2dca aa3d 8657 21be 5f2c c53d bc37 6bbd
00000300: b98c 29bd 25d6 073e 9407 aabc 4508 19be
00000310: d166 8fbd cef6 8bbc 141c a7bd d2fc 84bd
00000320: 73c4 21be cd46 d53d 74d1 833d 3d51 89bd
00000330: 343f 143e f14f 9fbd 354a a6bd 6a76 b93d
00000340: 4217 d9bd 34d0 1a3e 71b8 683c af22 eebb
00000350: 0419 c7bd faf2 db3d 3f95 813e 711c b43c
00000360: 62f3 493d a7b7 193d b0f6 0e3e 2be1 403c
00000370: 7968 9c3c 00c6 bfba be45 103e a642 563e
00000380: 7998 10be 13e6 9cbd 27b3 88bd 7721 3c3e
00000390: 19b4 143e 703c 33bd 4600 95bd e2c7 2a3e
000003a0: a61a 93bd 91b7 1bbe 5ad6 3dbe afa1 84bd
000003b0: d9cd 14be bd22 ccbc 15cc d83d c1c4 8d3c
000003c0: 6e88 93bd 7dbc a8bd a75d f8bd 7c55 75bd
000003d0: c9b0 983d 4504 b33d 261f 05be e73e 123d
000003e0: 7f8e 90bd 949a 053e 1482 ed3d 8443 fb3d
000003f0: 3bf0 70bd 49bb f23d 5cca 0fbe f455 0f3e
-0.13294017 0.082904935 -0.0770431 0.122502476 0.026812496 -0.12314092 0.10591169 -0.0064501907
-0.07144944 -0.04708696 -0.037498917 -0.10499021 0.07819781 0.058370013 0.18203549 0.069659
-0.035596386 -0.1127251 -0.19409585 0.1855642 0.107278705 -0.062116686 0.031740006 -0.11468508
-0.109874204 -0.046274364 -0.115935914 -0.05573774 -0.15589641 0.13532777 -0.10766912 0.077330746
-0.18011297 0.037360094 0.093514964 -0.02259182 0.13858679 0.032856952 -0.14902914 0.07987984
-0.020548923 -0.1617132 -0.10636526 -0.08462836 0.020310491 0.062607445 0.014501902 -0.0034144737
-0.122669615 0.044014294 -0.039069593 0.021604443 0.04107325 0.022013485 -0.071313255 -0.1287746
-0.18948081 -0.10970793 -0.06983246 -0.07518427 -0.1032076 0.1549937 -0.07296676 0.07992798
-0.035543673 -0.07670299 -0.12890328 -0.010024758 0.08433141 0.05963406 -0.04137699 -0.09621671
-0.056141995 0.021394255 -0.027359296 0.073756434 -0.07569424 -0.031196957 -0.11986194 0.078730345
0.10212823 0.1858269 0.1375539 0.075206436 0.08473171 -0.1591649 -0.12285833 -0.0024483583
0.073718205 -0.068920866 -0.13660903 -0.07639754 -0.080404274 0.086348124 -0.04064288 0.09929857
0.004145239 -0.041337296 0.14258753 0.13561043 0.037670184 -0.2032157 -0.20770183 0.16523074
0.120036386 0.015036177 -0.07016779 0.09296649 -0.12531956 0.080543295 -0.070404485 0.11790096
-0.16996555 -0.043506593 -0.122082174 0.0063519827 -0.06978814 0.14566094 -0.05974003 -0.13239716
-0.12643255 -0.06347341 0.08570007 -0.064818926 0.02016144 0.0806156 -0.20421791 0.10446148
0.1471303 -0.0019172627 0.05992526 -0.0015397839 -0.12386824 0.0011822571 -0.13568284 -0.17251071
0.09340171 0.09529945 0.09375278 0.18843181 0.1564953 -0.04166766 -0.06694379 0.007919686
-0.08873837 -0.074505925 0.13171616 -0.14073648 0.09903557 -0.1077112 0.15644038 0.1760852
-0.018891905 -0.106512144 0.011194534 0.08463026 0.12057518 -0.081091575 0.15848665 0.046609893
-0.11512825 0.13094872 -0.11432326 0.029691912 -0.11163018 -0.107431054 0.12152712 0.15087919
0.013546637 -0.0032060517 0.23716997 0.19106297 0.025233785 -0.059486523 -0.06435339 0.098347485
-0.04217682 0.06480444 0.07415451 -0.08725074 0.007752884 -0.05850895 0.23772591 0.052836813
0.20593254 -0.11023002 -0.12970729 0.020840192 0.08339343 -0.15756044 0.09627604 -0.0574262
-0.04139397 0.13265283 -0.020755567 -0.14944561 -0.070020325 -0.01708546 -0.08159652 -0.06493534
-0.15797596 0.10413895 0.064364344 -0.06704948 0.14477235 -0.077789195 -0.081196226 0.09055789
-0.10600139 0.15118486 0.0142041305 -0.007267318 -0.09721568 0.107397035 0.25309178 0.021986218
0.049304374 0.03752866 0.13961291 0.011772434 0.019092785 -0.0014631152 0.14089105 0.20923862
-0.14120664 -0.07661071 -0.066747956 0.18372141 0.14521827 -0.04375881 -0.07275443 0.16677812
-0.07182817 -0.15206744 -0.185388 -0.06476151 -0.1453165 -0.024918908 0.105858006 0.017305734
-0.07203756 -0.08239076 -0.12127238 -0.059895977 0.07455594 0.08741049 -0.13000163 0.03570452
-0.07058429 0.13047248 0.11597076 0.12268737 -0.05882285 0.11852128 -0.14042038 0.13997632

blocks.0.fcn_layer.bias f4 [32]
00000000: 683f 90bd 332d ef3d 68e3 143e c32f 803d
00000010: 746b c23d 2675 4c3d 1a80 2c3d 0842 02be
00000020: 9a6a 18bd fc17 2abd a1d5 c8bd 8c49 c4bd
00000030: 03e6 3f3c 42be a4bc facd 83bc 4f37 f83d
00000040: 9a00 bbbd 9344 4ebd c169 20bd 5fdc 943d
00000050: 16dd ef3c 331f f5bd 67a4 713d 0c12 08be
00000060: 694a edbd 2128 14be a033 e5bd d588 1bbd
00000070: 041b 263a 24a4 f1bd fb02 cf3d 7296 edbd
-0.07043344 0.11678543 0.14539874 0.0625911 0.09493151 0.04991641 0.042114355 -0.12720501
-0.03721104 -0.04152678 -0.098063715 -0.095843405 0.011712554 -0.020110253 -0.016089428 0.12119924
-0.09130974 -0.050358366 -0.039163355 0.07268595 0.029280227 -0.119688414 0.058994677 -0.13288134
-0.11586458 -0.14468433 -0.11191487 -0.03797229 0.0006336423 -0.117988855 0.1010799 -0.11600961

blocks.0.layer_norm.weight f4 [32]
00000000: 29e4 a53f fc34 a83f ab5a 7c3f ca2a af3f
00000010: f96b 973f 2e7d 9c3f aad4 9c3f 655e ab3f
00000020: 6727 a33f 9b39 943f 9851 8b3f 6201 a63f
00000030: ae4d 853f 2126 8a3f 7d5a 8d3f 4844 a33f
00000040: 60c2 933f 9e00 813f 447a 893f a592 a23f
00000050: a78e 7b3f af35 8a3f a7c9 a63f 4bad 993f
00000060: 5be6 933f 3e75 a33f 89c7 8a3f 2ed1 853f
00000070: 8724 923f fc1f 6d3f 18ca 993f f84d 8b3f
1.2960254 1.314117 0.9857585 1.3684933 1.1829826 1.2225702 1.22524 1.3388182
1.27464 1.158008 1.0884275 1.2969172 1.0414331 1.0792886 1.104324 1.2755213
1.1543694 1.0078313 1.0740438 1.2701002 0.98264545 1.0797633 1.303029 1.200601
1.1554674 1.2770154 1.0842143 1.0454462 1.1417397 0.9262693 1.2014799 1.0883169

blocks.0.layer_norm.bias f4 [32]
00000000: 033f 8e3e ce71 8e3e 8d88 49bc 9fe8 9b3e
00000010: 8b8d 063e 1a30 2b3e 4aac 063e 1a86 943e
00000020: 309f 8f3e 78f9 6e3d 3764 1b3d 1192 8d3e
00000030: b7aa 113d 92d3 253d d98f 903d ce5b 883e
00000040: 5ea1 883d 936a 05bd 6e34 01bd 2b86 873e
00000050: 10e0 d7bb d8a0 a83c f93e 8d3e e878 aa3d
00000060: bd86 e23d cd52 3b3e eed9 dd3c 1564 263d
00000070: 521c 083e 07bb b1bd 84e2 8b3d eebe 003d
0.2778245 0.278212 -0.012300623 0.30450913 0.13139932 0.16717568 0.1315166 0.2900856
0.28051138 0.05834338 0.03793737 0.27650502 0.035563197 0.040484972 0.07058687 0.2663254
0.06671403 -0.03257234 -0.03154414 0.2646955 -0.0065879896 0.020584509 0.27587107 0.08323842
0.110608555 0.18293305 0.027081456 0.04062279 0.13292053 -0.08678251 0.06830314 0.031432085

last_layer.weight f4 [1, 32]
00000000: d945 b5be c78b b6be b515 b6bb f72c babe
00000010: a5f3 863e a2a1 a03e 607e c03e 7f6b cdbe
00000020: 64b6 b0be 2713 263e f0eb 463e 3c95 b6be
00000030: 269d 28bd 01b3 3f3d 7c98 383e bcc6 c4be
00000040: bcf3 7d3e f2bc 6b3d 8395 e83d 4e49 bcbe
00000050: b4c7 d5bb 5dbf 803e 1545 c5be d216 9a3e
00000060: 7a16 9e3e 9a89 723e db49 0a3e 7ebd 223e
00000070: e5d4 343e 5391 d23b 8683 5b3e cc90 173e
-0.35404852 -0.35653517 -0.005556787 -0.3636243 0.2635776 0.31373316 0.37596416 -0.40121076
-0.34514153 0.16218244 0.1942594 -0.35660732 -0.041165493 0.04680157 0.18026918 -0.38432872
0.24800009 0.05755324 0.11356642 -0.36774677 -0.0065240506 0.25146 -0.38529268 0.30095536
0.30876523 0.23685303 0.13504736 0.15892598 0.17659338 0.0064260154 0.21436891 0.1480133
