models/Open_Editor.onnx (onnx, 205430 bytes, 9 tensors)

layer1.weight f4 [32, 1536]
00000000: 2c68 9c39 a822 123c 0ce4 94bb 872d 8fbc
00000010: 2c76 cdbb fb84 aabc 2fba 7cbc 4d98 47bd
00000020: 2de8 16bd 765c 8d3a 043f 633c 2fdc 2a3c
00000030: b000 f7bb 159c 82bc 5f6f 8cbc 4d8e 1bbd
00000040: ffaf 743b 809e 053d d53b a73c 186e d1bb
00000050: c07b b73c 5074 9c3c d581 343c d08b c93c
00000060: 5868 833a b3e0 283c 111a 2bbc 72e5 35bb
00000070: 43d9 8db9 f83a 86bd ee8a ab3c 7f23 9b3c
00000080: 95b0 7fbc 4898 bcbc 1e58 fa3a 223f 40bc
00000090: 3a19 01bd cbe1 23bd 40f1 523c bd6e 9fba
000000a0: 4781 3ebb 4fe3 3a3d 8014 c7bc e6e7 4dbb
000000b0: 45fc 36bc a80e 7cbb 2b24 78bc 7c8b 32bd
000000c0: 09c4 49bd 1f33 b43b 619e 8f3c f1e7 203c
000000d0: 6655 8bbc fe87 b63c 00b7 acbc f547 913c
000000e0: 031c 673b f37b 20bc cd8d 09bc 19ea d1bc
000000f0: d4f8 91bc 0381 64bb 3b95 093d c564 a73b
00000100: 706e e13c 55b1 123d ee6c 17bb 5c76 d9bc
00000110: a109 c4bb ab16 94bd b637 b43b 8a18 b83c
00000120: 38c7 5e3d af09 403d c915 d13c 0e8d 103d
00000130: eee3 833d 6ae3 83bc 1bec 66bc dfdc 31bc
00000140: cfc2 69bd fb64 1e3b 1268 513c 1843 8b3c
00000150: 90c9 16bc f933 0dbd 0960 313c b958 723b
00000160: 6cf7 19bc 074a 32bc 5e1b 0e3d 67fb 9fbc
00000170: f417 ecbc 23ea 9d3c 594a 1e3c ac55 863b
00000180: d2a1 c43c 23bc 1dba 048d b63c 46bb 26bd
00000190: 8bc6 273c b6e4 e7bb fff3 c4bc 5213 adbc
000001a0: 487f 5abc 12be 17bc 6d14 b03c 8b4f 66bc
000001b0: e846 2a3c 4bcb e6bc bc7a b03b 3e21 0fbd
000001c0: 24bb c73b 7634 4e3d 623b adbc 794c cebb
000001d0: 5bfa e83c ab52 c2bc 14a3 fb38 ab49 b9bc
000001e0: ceff 983c ef53 0b3d 14c0 a33c ce41 103c
000001f0: 834f 3cbc 9ef1 46bd e043 8a3c 1029 b93b
00000200: 4a8c 053c 5167 e9bc db02 42bd 8ab3 083c
00000210: b59c 4e3c 404e 01bc 603f 213b 9c03 6ebc
00000220: 3d36 0e3c ba3a f93b b9ac 013c 580e aebb
00000230: 60dc 6ebc 1529 cfbc 8cf3 25bc be91 a8bc
00000240: 383c 46bd 170a a9bb c948 d83c 18f1 2e3c
00000250: 1b87 a8bc 184d 013d c679 cc3c 243a fabc
00000260: 4e5a aa3c f54d a0bc fdfc fc3b 23de 93bc
00000270: f3a6 203d 89d3 6e3c 4287 8d3a 0f1e b73c
00000280: c584 f03a 4304 99bb 144c 9c39 bff9 d2bc
00000290: 0b89 69bc 1da9 523c 894a 9abc ce29 cabc
000002a0: e0e3 373d 5d53 763c faf8 a23c b647 eb3c
000002b0: a7ec 153c 81ee b9bc 550f e33c 91a9 6c3c
000002c0: 3705 87bc 83f0 fe3c c801 d13b 0a42 0d3d
000002d0: 8fba 9dbc 2948 8bbb d0d9 3bbb a90c 33bc
000002e0: f7d9 033d 0851 ae3c c478 f53c 9405 3dbb
000002f0: fc20 143c 9532 303b 1a96 ddbc 67b3 ed3b
00000300: 7fae 89bb cb96 103d c292 863c b864 44bd
00000310: c50c 4ebc 6d9d 05bb 4715 05bd ff06 f6bb
00000320: a54b 6fbd bf31 56bc 8412 c83c da43 10bd
00000330: 6065 ffbb 9353 133a f2d9 db3b 672a 98bd
00000340: 80e0 ae3b df93 d33c 0c5e d73b 1cb8 523c
00000350: 5650 c2bb df0e b9bc 2ae8 9b3c 33b9 893c
00000360: c4bc 1f3c 2e41 c3ba 4358 f73c 298e 763c
00000370: c3c6 0fbc 6871 2dbd c50c 583c 36c6 5e3c
00000380: ced7 a7ba 6e6f 99bc 4357 33bd 1e27 d5bc
00000390: 2df3 2f3c 01a4 f7bb 6ce9 92bc 5336 733a
000003a0: fb3e 0f3d 7bb5 f7bc be0d 493c ce24 c2bb
000003b0: f709 62bc bd65 0bbc c883 713b 2376 ebbb
000003c0: 5cae 24bc 6414 1a3c 47e0 a73c cb22 7bbc
000003d0: b175 cbbc 0ed1 293d f441 b63b 4c57 3b3c
000003e0: c465 93bc eebe df3b 7747 64bb e900 abbc
000003f0: b337 c23a bbd1 46bb ad97 b93c 1e38 4abb
0.00029832253 0.0089193955 -0.004543787 -0.017477764 -0.0062701907 -0.020815363 -0.015425249 -0.04872923
-0.036842514 0.0010785002 0.013870005 0.010428472 -0.0075379238 -0.015943566 -0.01714295 -0.037977505
0.0037336347 0.03262186 0.020414272 -0.006391298 0.022397876 0.01909843 0.0110172825 0.0246028
0.0010025604 0.010307479 -0.010443226 -0.0027755168 -0.00027055488 -0.06554216 0.02094027 0.018937824
-0.015606065 -0.023021832 0.0019099747 -0.011733802 -0.0315182 -0.040010255 0.012874901 -0.001216374
-0.0029068755 0.045626935 -0.024301767 -0.003141874 -0.011168544 -0.0038460884 -0.015145342 -0.043590054
-0.04925922 0.005499258 0.017531576 0.009820924 -0.017008495 0.022281643 -0.021083355 0.017734507
0.00352645 -0.009795177 -0.008395624 -0.025624322 -0.017818846 -0.0034866936 0.033589583 0.005108448
0.027518481 0.03581365 -0.0023105699 -0.026545696 -0.005982593 -0.07230886 0.0054998053 0.022472639
0.05438921 0.046884235 0.025523083 0.03529077 0.064399585 -0.01609965 -0.014094378 -0.010855882
-0.05707055 0.0024169076 0.01278116 0.016999766 -0.00920333 -0.034473393 0.010826119 0.0036979152
-0.009397369 -0.010881907 0.034694068 -0.019529058 -0.028820015 0.019276684 0.009661281 0.0040995684
0.024002943 -0.0006017109 0.022284038 -0.04070594 0.010240207 -0.007076825 -0.024042128 -0.021127377
-0.01333601 -0.009261625 0.021494115 -0.01405705 0.010392882 -0.02817311 0.005385725 -0.03494381
0.006095307 0.050343 -0.02114648 -0.0062957373 0.028439691 -0.02372106 0.00011998988 -0.022618135
0.018676665 0.034015592 0.01998905 0.008804752 -0.011493566 -0.048570268 0.016878068 0.005650647
0.008151123 -0.028491648 -0.047366004 0.008343587 0.012610604 -0.007892191 0.0024604425 -0.014527228
0.008679924 0.0076058777 0.007914715 -0.0053117685 -0.014578909 -0.025288144 -0.010128867 -0.020577308
-0.048397273 -0.0051586735 0.026401894 0.010677598 -0.020572236 0.031567663 0.02496041 -0.030545302
0.020795014 -0.019568423 0.0077205882 -0.018050259 0.039221715 0.014576801 0.0010797756 0.0223532
0.0018350115 -0.0046696975 0.0002981132 -0.025753854 -0.014253865 0.012857703 -0.01883437 -0.024678137
0.044895053 0.015034524 0.019894112 0.028720718 0.009150661 -0.022696735 0.027717272 0.014444725
-0.016481979 0.031120544 0.006378386 0.034486808 -0.019253997 -0.0042505455 -0.0028663762 -0.010928311
0.03219029 0.021278873 0.029964812 -0.0028842436 0.009041067 0.0026885618 -0.027049113 0.0072540524
-0.0042017098 0.035300057 0.016427401 -0.047947615 -0.012576287 -0.0020388023 -0.032490995 -0.007508158
-0.05842175 -0.013073384 0.024422891 -0.03522096 -0.0077940673 0.00056200585 0.0067093307 -0.074299626
0.005336821 0.025827346 0.0065724906 0.012861278 -0.005929987 -0.022590099 0.019031603 0.016811943
0.009749595 -0.0014896744 0.030193454 0.015048542 -0.008775416 -0.04234448 0.013186638 0.013597062
-0.0012805404 -0.018729892 -0.04378439 -0.02601963 0.01073913 -0.0075573926 -0.01793357 0.00092778093
0.034972172 -0.030237904 0.012271343 -0.0059247976 -0.013796321 -0.008508143 0.003685223 -0.007185714
-0.010051336 0.009404276 0.020492686 -0.0153281195 -0.024836393 0.041459136 0.0055620614 0.011434387
-0.017992862 0.0068281805 -0.0034832635 -0.020874457 0.0014817625 -0.0030337411 0.022655332 -0.0030856202

layer1.bias f4 [32]
00000000: 5ea7 79bc 7a69 98bc b111 073d e966 fcb9
00000010: 1301 823c 49eb 9ebc d67a b3bc 519b 60bc
00000020: 7244 d8bc ca93 5c3c dff0 8cbc 7b60 50bc
00000030: 9dac c8bc 99e8 a03c de86 ae3c b655 933c
00000040: 41b1 133c 6ad1 303c a282 56bc 36c9 adbc
00000050: 0bf6 533c 8409 823c 76fb 8c3c 5e23 6c3c
00000060: 20d2 b43c 2162 103c 6301 a03c 2679 c13c
00000070: 6cb0 143c be77 b63c c25b f83c 7fb7 d63b
-0.015237657 -0.018604983 0.032975856 -0.0004814186 0.015869653 -0.019399302 -0.021909159 -0.013708905
-0.026399825 0.01346297 -0.0172047 -0.012718315 -0.02449637 0.019642161 0.021304544 0.017985206
0.009014429 0.010792116 -0.013092669 -0.021214109 0.012937079 0.015873678 0.01720975 0.014412729
0.022072852 0.008812458 0.019531911 0.023617338 0.009075265 0.022273894 0.030317191 0.006552636

layernorm1.weight f4 [32]
00000000: 339e 743f c98e 753f b1fc 703f 2a0e 753f
00000010: 2774 8b3f 0708 793f 46e5 863f 537b 7a3f
00000020: 43a5 793f 0c76 883f 0b88 7e3f 6b26 803f
00000030: 2118 7f3f ae3c 7e3f 02f8 7d3f 0e8f 813f
00000040: 2e8c 783f 2cd7 803f 3d46 783f e58a 823f
00000050: 8b64 833f 97d4 773f 7dbe 793f 3934 743f
00000060: bf4f 7b3f 39dd 803f 783d 803f 7844 773f
00000070: 114c 793f 6dc1 8d3f c23d 8d3f 5382 7e3f
0.9555389 0.95921 0.94135576 0.9572474 1.0894822 0.97277874 1.0538719 0.9784443
0.97517794 1.0661025 0.99426335 1.0011724 0.9964619 0.9931134 0.99206555 1.0121782
0.970889 1.0065665 0.96982175 1.0198637 1.0265058 0.9680876 0.9755629 0.95392185
0.9816856 1.0067512 1.0018759 0.9658885 0.97381693 1.1074654 1.1034472 0.9941761

layernorm1.bias f4 [32]
00000000: 986a 84bc 26b2 f0bc f973 a03b f5c0 afbc
00000010: 2e48 263d 3fb2 2fbd 1fe6 b5ba b9d4 87bc
00000020: 838b 17bd 3677 84bb 5be2 15bd 62fd a83b
00000030: cc89 ec3c 32ef 103c d125 02bc 5dda 373b
00000040: 88c2 b9bc 538d 6bbc 7573 f0bb 3e8d a13c
00000050: 5daf 983c eb7c 8cb9 a66c b1bc 7387 b4bc
00000060: f4ba c9bb ed43 163c 6e25 6fbb 30f2 0d3c
00000070: 1f98 76bc 05cc a73c f97e 3d3b 19c5 da3a
-0.01616411 -0.029381823 0.0048966375 -0.021454314 0.04059618 -0.042894598 -0.0013877786 -0.016580926
-0.036998283 -0.0040425314 -0.036592823 0.0051571587 0.0288743 0.008846091 -0.007943586 0.0028053739
-0.022675768 -0.014376956 -0.0073379823 0.01972067 0.018638307 -0.00026795952 -0.021658253 -0.022037243
-0.0061563198 0.009171468 -0.0036490816 0.008663699 -0.015050917 0.020483026 0.0028914793 0.001669082

blocks.0.fcn_layer.weight f4 [32, 32]
00000000: 498f 5cbd 36ac 903d 9d70 9cbd 5ceb 2b3d
00000010: 12c2 443d 1b1d 59bd f40c 633d 2b41 343e
00000020: a8b6 09bd 7dca d5bc 0661 a3bd 56c6 533e
00000030: c65a a0bd 0e11 58bc 2a91 073c 001d d2bd
00000040: 7981 bf3c 8f32 093e 4ec9 b03d cc44 5a3e
00000050: 4a61 9a3d 69e6 943c e57f c33d 2a9b a0bc
00000060: bf7b b2bd 43d7 69bd 5da9 2f3d 5040 043e
00000070: 445d 113e 6e0d d73d af7d 0e3e f299 d23d
00000080: a54e 6fbd f823 a3bd 5db1 333d b085 29be
00000090: d873 1abe 8dd7 b93c 02bc b3bd d241 19bd
000000a0: ea35 d2bd a1ea 353d 95bc 38be a3c0 2e3e
000000b0: cda5 1f3e 5ac7 01be af47 803d ffa1 86bd
000000c0: 36b5 fd3d f7d3 b03d 5438 913d e374 523e
000000d0: d16c 6abd 0ebf febd af09 e23d 4a93 9fba
000000e0: a1aa 023e fa21 bf3c 145d aabd 8eb5 ab3d
000000f0: 0636 0d3e a4f5 463e 2228 733d 947d 0fbd
00000100: 73a5 fa3d ab9a c4bd 8b3c 873b aaf8 2cbe
00000110: d197 dcbd ae3d c1bc cba7 993c ba97 51bd
00000120: a5a3 3fbd 2fcc f8bd 8feb 963d 434e e1bc
00000130: 0a43 173d 6c13 8b3c 8ee5 f23d 7da8 833d
00000140: 5b69 a7bd 03fa f7bb 485a 25bd 7de5 a33c
00000150: dcd3 24be 0044 d13d 8801 a1bd 11a3 cbbd
00000160: 19db 0a3d 9698 203d 1cf4 8a3d adce 0c3e
00000170: 5422 023e eebd 073d f100 393e 9cef 073d
00000180: e2ab 8fbd 4802 cbbd 3020 313e 277a 0f3e
00000190: 2c4a 86bd 749e 8dbd 6f12 0fbd ac4e d1bd
000001a0: 1a18 5c3d 1049 663d 45c7 073c a3fd fb3c
000001b0: ec78 f13d d88c e7bd 2e43 8c3d 082d e5bc
000001c0: 8d22 0d3e de28 a5bd 586d 593c 72fa 0a3e
000001d0: 0c34 c4bc 6afd cc3c 9f04 4ebd 88f4 ab3d
000001e0: 763e 283b c758 e0bd 2448 033e 4023 1fbd
000001f0: ee90 1fbe 6bf2 bebd e54a ebbd 40fa babd
00000200: 194d 073c 6837 a0bd 711f 753d e4ed c5bc
00000210: 9cf1 09bd c269 b1bd 5036 883e ddc7 9a3c
00000220: 8363 04be 45b9 803d 7b7f 0cbe bef5 073e
00000230: c67a 153e 8f87 003e 4c87 3cbc 0545 c0bd
00000240: 7b08 61bc fa3a f73d 43ef 83bc 1989 593e
00000250: 1036 c3bc 75a7 c4bc 649f 17bd 4486 7ebd
00000260: e56c 8f3d f418 0fbd 1de1 58bd e232 fa3d
00000270: a1d3 253b 7f73 3e3e 86a4 b9bd 56ca 46bd
00000280: c639 c6bd 3dc1 1cbe 5d9e 9cbd 0c09 293c
00000290: 96ba 0bbe e5d2 fbbd 9f15 93bc a675 23bd
000002a0: 0c82 39bd 7e67 68bd 2fa8 1d3e aa40 acbc
000002b0: 4fae 12be cbc3 e63d 4115 c63d 8c54 e33d
000002c0: 933e fcbd e7d8 6f3c 53c3 c5bd 14ac cabd
000002d0: 8af1 ecbd d2d8 d63d 90a7 713d a577 883d
000002e0: fbd4 5fbd 2252 143e 4dca 083e 0091 f6bc
000002f0: 7819 123e 9b2d 92bd 4914 0f3d 279f 8e3d
00000300: 0e8d a03d 44f6 1bbd a661 8b3d 5b28 113e
00000310: 8924 083e 2b9e c4bd b984 67bd b1ac 163e
00000320: 1ace 89bd b0ee e63d b9cf 46bd 6077 e03d
00000330: f9e6 e83d 8cc0 713d 5902 123e c81c 833c
00000340: 5795 06be 448f 343e 1dc9 b63d cd78 2e3e
00000350: 6c33 84bb b5b7 28bb 17ad 513d 9393 5b3d
00000360: dd41 423d c317 21be 897b f5bd c963 153e
00000370: a19f 8bbd 4b4b a43d 582c 40be 1cf7 bbbd
00000380: b38c 893c 7b3b 503c 06f7 ab3d 7531 90bd
00000390: 63fe 39be 7e95 16be 8ea4 393c 149d 3a3d
000003a0: 3d68 39be 1d74 91bd eac8 933d 3307 f23c
000003b0: 3536 c5bd 8e73 d13d d505 563c 1015 3c3d
000003c0: 883c 1abe 2823 8abc fd62 2fbe 7de0 efbd
000003d0: 50a6 85bc 361c 553d ca1d a1bd 4dac a83c
000003e0: df72 9bbd aef4 71bc 587a 3f3c 3ff2 df3d
000003f0: 8447 fa3d c44d 54be ebde 663e a55a b6bd
-0.053847585 0.07064097 -0.07638667 0.041972503 0.048036642 -0.053006273 0.055432275 0.17602985
-0.03362146 -0.02609753 -0.0797749 0.20681128 -0.07829814 -0.01318766 0.008274356 -0.102594376
0.023377167 0.13398193 0.08632146 0.21315306 0.07538088 0.018176274 0.09545878 -0.019605238
-0.08715009 -0.057090055 0.042886127 0.12915158 0.14195734 0.105006084 0.13915132 0.10283269
-0.05842461 -0.07965845 0.04387032 -0.16554904 -0.15083253 0.02268579 -0.08776094 -0.037416287
-0.102641895 0.044413213 -0.18040688 0.17065673 0.15590592 -0.12673703 0.062636726 -0.06573867
0.12388079 0.08634179 0.07090822 0.20552401 -0.05723268 -0.124387845 0.11037003 -0.0012174633
0.12760402 0.023331631 -0.083185345 0.08384238 0.1379014 0.19429642 0.059364446 -0.03503187
0.12238588 -0.09599813 0.0041270903 -0.16891733 -0.10771144 -0.023588981 0.018756768 -0.05117009
-0.046786923 -0.1214832 0.07369148 -0.027503138 0.036929168 0.016977035 0.1186019 0.06428621
-0.08174392 -0.0075676455 -0.040369302 0.02000689 -0.16096443 0.10218048 -0.0786162 -0.09943212
0.033900354 0.039208017 0.067848414 0.13750716 0.12708408 0.033140115 0.18066765 0.033187494
-0.07015206 -0.099125445 0.17297435 0.14011441 -0.06557116 -0.06914988 -0.03492969 -0.102200836
0.053733923 0.05622202 0.008287256 0.030760592 0.11790642 -0.11306161 0.06848751 -0.027975574
0.13782711 -0.080644354 0.0132706985 0.135721 -0.0239506 0.025023181 -0.050297376 0.0839625
0.0025671995 -0.10954433 0.12820488 -0.038851976 -0.1558263 -0.09323581 -0.114888944 -0.09129763
0.008258128 -0.07823068 0.059844438 -0.024161287 -0.033677682 -0.0866275 0.26603937 0.01889413
-0.12928586 0.06285337 -0.13720505 0.13277337 0.14597616 0.12551711 -0.011506867 -0.093881644
-0.013734932 0.12071796 -0.0161053 0.21243705 -0.02382949 -0.024005631 -0.03701724 -0.062139764
0.07003192 -0.034935907 -0.05294906 0.122167364 0.0025303143 0.18598746 -0.090645835 -0.048532806
-0.09678988 -0.1530809 -0.07647393 0.010317098 -0.13645396 -0.12296084 -0.017954646 -0.03990712
-0.045290038 -0.056739323 0.15396188 -0.021026928 -0.14324306 0.11267813 0.096720226 0.111001104
-0.123166226 0.014639116 -0.09656396 -0.098961025 -0.115695074 0.10490574 0.05899769 0.066634454
-0.054646473 0.14484456 0.13358422 -0.030098438 0.14267528 -0.07137605 0.034931455 0.0696395
0.07839404 -0.038076654 0.06805734 0.1417555 0.13295187 -0.09600481 -0.05652306 0.14714314
-0.06728764 0.11275995 -0.048537944 0.10960269 0.113721795 0.059021518 0.14258708 0.016004935
-0.13142906 0.17632776 0.08925078 0.1703827 -0.0040344503 -0.0025744264 0.051190462 0.053607535
0.047426093 -0.1573172 -0.11986453 0.14588846 -0.06817556 0.080221735 -0.18766916 -0.09177992
0.016790723 0.012709494 0.08396725 -0.07040683 -0.18163447 -0.14705464 0.011330737 0.045559958
-0.1810617 -0.07102225 0.07216056 0.029544448 -0.0962948 0.102271184 0.013062914 0.045918524
-0.15062153 -0.016862467 -0.17127605 -0.117127396 -0.016314656 0.052028857 -0.0786701 0.020589972
-0.07590269 -0.014767809 0.011686884 0.10934877 0.12220672 -0.2073279 0.22545974 -0.08904008

blocks.0.fcn_layer.bias f4 [32]
00000000: 2754 fdbd 448b 263d 45f2 2ebe 1ce3 cf3c
00000010: b09f f63b bb36 15be 0a19 943c 5e11 0f3e
00000020: 975c b83d cf0a c1bd f615 9ebd 907b 7abc
00000030: c991 263d 4198 763d fdf6 243e 1e13 d03b
00000040: a83e b03d e6ab 5f3c 007d e23d 73fc 32bd
00000050: cbb3 02bd 974d 0ebe 266a 963d 06c2 fcbd
00000060: 8c26 953d 43ce 1d3e 34da 153d e833 1bbd
00000070: 1856 233d bbea 1c3e 394d 05bd b901 933d
-0.123695664 0.040660158 -0.17084606 0.025376849 0.0075263605 -0.1457166 0.018078346 0.13971469
0.09002035 -0.0942589 -0.077190325 -0.015288249 0.040666375 0.060203794 0.16109844 0.006349935
0.08605701 0.013651824 0.11058998 -0.043697786 -0.031909745 -0.13896786 0.07344465 -0.123416945
0.07282743 0.15410714 0.036585048 -0.0378913 0.039877027 0.15323918 -0.03254435 0.07178063

blocks.0.layer_norm.weight f4 [32]
00000000: a604 8e3f 2a47 833f dff4 b33f 4e81 773f
00000010: 5029 a13f c371 a93f 36ac 8d3f 18f9 b53f
00000020: 20ea 8e3f 3593 6f3f cdde 853f 67d8 a53f
00000030: ba87 8c3f c324 a03f 5bd6 843f 6c8a 903f
00000040: 2b5f 923f 3b8b 883f d010 a63f 2e1b 973f
00000050: ce03 803f 8c69 8b3f 5e07 813f a4f3 9c3f
00000060: 8679 7a3f a688 a03f 6e9d a33f 9a18 9b3f
00000070: ed5d 8a3f e026 ad3f 8649 a73f 8bf0 a53f
1.1095169 1.0256093 1.4059104 0.9668168 1.2590733 1.3237842 1.106818 1.4216642
1.1165199 0.93583995 1.0458618 1.2956666 1.097892 1.2511219 1.0377916 1.1292243
1.1435293 1.066749 1.2973881 1.180517 1.0001161 1.0891585 1.0080373 1.2261853
0.9784168 1.2541702 1.2782419 1.2116883 1.0809914 1.3527489 1.3069313 1.2964033

blocks.0.layer_norm.bias f4 [32]
00000000: f65a 943d b33f f33c 1130 a43e 0296 8cbc
00000010: 7b2e 3d3e c533 913e 5918 c73d de00 a33e
00000020: ddd6 883d c8cb 8bbc 0117 1f3d d9ad 913e
00000030: 3ef0 8d3d f1cc 833e 2919 f43c ea22 b23d
00000040: b52d cd3d f141 e7ba b230 8c3e 3c60 de3d
00000050: 4d6b ccbb 818f 8c3d 9632 bebc 6e8b a53d
00000060: feed a0bb b535 223e de82 893e 7dd5 d53d
00000070: 6f34 b23d 9abd 953e 6e88 8c3e 25ed 8e3e
0.07243912 0.02969346 0.32067922 -0.017161373 0.18474762 0.2835981 0.09721441 0.318366
0.06681607 -0.017064944 0.038840298 0.28452948 0.06930588 0.25742295 0.029797154 0.086980656
0.100184835 -0.0017643553 0.27380902 0.10858199 -0.006238377 0.06863309 -0.02321748 0.08083235
-0.0049111834 0.158408 0.26857656 0.1044111 0.08701407 0.29246217 0.27447838 0.27915302

last_layer.weight f4 [1, 32]
00000000: 1c4a 533e 487f 523d ea3e c0be 70e0 83bb
00000010: 7746 993e f00a bcbe 50cd f03d 3e21 c9be
00000020: 7911 783e 39a7 513c e88a 233e 4d8d abbe
00000030: 2dfa 693e 8f36 cabe 4bb8 0d3e 9d2f 573e
00000040: 4826 023e 1b40 ad3d a044 cabe cbe6 603e
00000050: 5e0c 3f3d d402 7b3e 9073 5f3d 45ee a53e
00000060: c4fd f3bc 6a21 893e c28b d1be 0ea9 893e
00000070: ef64 803d 9802 b6be 0513 bcbe 5e74 b4be
0.20633739 0.051390916 -0.37548 -0.004024558 0.29936573 -0.36727095 0.1175791 -0.39283174
0.24225415 0.012796217 0.15970957 -0.3350624 0.2284934 -0.3949475 0.13839833 0.21014257
0.12709916 0.08459493 -0.39505482 0.2196304 0.046642654 0.24512798 0.05455357 0.32408348
-0.02978409 0.26783305 -0.4092694 0.2688679 0.062692516 -0.35548854 -0.3673326 -0.3524503
