models/Open_Youtube.onnx (onnx, 205430 bytes, 9 tensors)

layer1.weight f4 [32, 1536]
0.0066360603 -0.021328982 -0.07564828 -0.029932862 0.029390251 -0.007836689 0.0045372606 -0.030273566
-0.020373417 -0.020463496 -0.019484224 -0.034629293 0.017533194 0.008507077 -0.011742895 -0.044027448
-0.009709193 -0.029658377 0.021438034 0.013878015 -0.006350072 0.005619846 0.03633418 0.051219154
0.022213323 -0.027739016 0.0042986926 0.0030024557 0.01152054 -0.06039598 0.04631688 -0.031938888
-0.0142611265 -0.036872573 0.018179744 0.01889492 -0.015536942 0.01652863 -0.004117216 0.013546994
-0.053664986 -0.035187583 0.022110261 0.013025912 -0.009083001 -0.00017711175 0.02147316 0.08438078
-0.010516089 0.03386774 0.044044442 -0.03531051 -0.04813208 0.16484551 -0.02564076 -0.019225389
0.06612568 -0.029720835 0.027942952 -0.010061171 0.0032943985 -0.04821365 0.0019181757 -0.01985727
-0.0021158843 0.012359573 0.007635655 0.0010540349 -0.0666111 0.018360274 0.026743546 0.019019917
0.0866486 0.051314417 0.023162572 0.05265236 0.0079583395 -0.040208384 0.02116462 0.008122887
0.022501385 0.0018633843 -0.032253724 0.06342263 0.009586835 -0.08262997 -0.022937775 -0.057918314
-0.0052928487 0.01877385 0.010316588 0.023705848 0.01124341 0.025018638 0.010541391 0.013313439
0.049777497 0.0106466785 -0.040378906 -0.008147388 0.030935995 -0.03661828 0.017001064 -0.046864685
-0.08041961 0.01733882 0.006970311 -0.017314892 0.0031472195 0.012201155 -0.017330907 0.0036032782
-0.018122489 0.022739306 0.01959935 -0.012569083 -0.019787967 -0.01893737 -0.019333296 -0.025713887
0.011212529 0.0031250247 -0.014493422 -0.035122935 0.022566894 -0.07513952 0.025947832 -0.011754415
-0.0020908003 0.005939408 0.038384244 0.02574096 0.008182159 -0.0055797 -0.034582656 0.0043721907
0.0042057037 0.002746162 0.011199723 0.008702202 -0.02830469 -0.025602391 0.017774265 -0.025921527
0.0019647775 0.01714422 -0.009961183 -0.006459414 -0.008003649 0.109425955 0.0025339636 -0.0040009506
0.05623297 -0.020340076 0.023037814 -0.012397102 0.025146393 -0.03528542 0.056978606 -0.034918018
0.009290382 0.012266979 0.04534349 0.0011489942 -0.042143065 -0.027085882 -0.012712777 0.019797055
0.02983849 0.050699826 0.009400117 0.055471137 -0.007247685 -0.043886777 -0.008910841 0.0153310355
0.035520792 -0.008169565 0.0086493 0.04863912 -0.009761119 -0.11986011 -0.03167056 -0.025587602
0.0062164282 0.023054741 0.011501874 2.74941e-05 -0.01879377 0.018408941 0.018976692 0.03140144
0.0652044 0.010234999 -0.055767808 -0.07815554 0.027223261 0.01407504 0.0022624778 -0.0051078154
-0.064634 0.034464147 -0.008422382 0.0016348995 -0.10364204 0.013685432 -0.031499185 0.0109519
0.013603292 0.02656898 -0.035086684 0.021203658 -0.030375129 0.018347397 0.0064943647 -0.030524056
0.0124224285 0.0019342235 0.018301763 -0.07653288 0.03265688 -0.01828127 0.029257584 0.0108357305
-0.017242156 0.00055572955 0.0104624275 0.018063465 -0.016911354 0.012612312 -0.016546076 -0.008561609
0.020390641 0.030319896 0.006322605 0.016028106 -0.044417277 -0.03216247 -0.034314312 -0.0031016637
-0.021292094 0.08122503 0.0030631032 0.009045813 -0.022110077 0.05311058 0.0062446347 0.014734451
-0.014718549 0.008090954 -0.023998268 -0.029552309 0.032563683 -0.0034702844 0.0034746258 -0.05505889
00000000: 4f73 d93b 1eba aebc 7ced 9abd c335 f5bc
00000010: d3c3 f03c 7565 00bc 4dad 943b 4500 f8bc
00000020: 27e6 a6bc 10a3 a7bc 619d 9fbc 72d7 0dbd
00000030: c6a1 8f3c 4461 0b3c 4565 40bc 2056 34bd
00000040: 4f13 1fbc 20f6 f2bc d19e af3c 9d60 633c
00000050: 4414 d0bb af26 b83b 26d3 143d 2dcb 513d
00000060: b7f8 b53c ef3c e3bc 0cdc 8c3b d9c4 443b
00000070: a6c0 3c3c c661 77bd c5b6 3d3d 5ad2 02bd
00000080: 80a7 69bc b207 17bd b0ed 943c 85c9 9a3c
00000090: a88e 7ebc 0d67 873c b6e9 86bb 36f4 5d3c
000000a0: d1cf 5bbd db20 10bd 9420 b53c a36a 553c
000000b0: ded0 14bc 13b7 39b9 7be8 af3c d5cf ac3d
000000c0: ad4b 2cbc e6b8 0a3d f267 343d c1a1 10bd
000000d0: 2526 45bd 43cd 283e 920c d2bc 907e 9dbc
000000e0: e76c 873d 1c79 f3bc 9ee8 e43c 9cd7 24bc
000000f0: d6e6 573b ad7b 45bd 4c6b fb3a b7ab a2bc
00000100: a6aa 0abb ce7f 4a3c 8434 fa3b 8b27 8a3a
00000110: 676b 88bd 4968 963c 4815 db3c a8cf 9b3c
00000120: d274 b13d 112f 523d 6fbf bd3c 00aa 573d
00000130: b263 023c 8cb1 24bd 6d61 ad3c dc15 053c
00000140: d354 b83c cd3c f43a 7b1c 04bd b9e3 813d
00000150: 1a12 1d3c e739 a9bd 00e8 bbbc c13b 6dbd
00000160: a26f adbb 9ecb 993c e806 293c c432 c23c
00000170: 4836 383c e3f3 cc3c ccb5 2c3c 9c20 5a3c
00000180: 7de3 4b3d 686f 2e3c 5a64 25bd 9f7c 05bc
00000190: 7c6d fd3c 0dfd 15bd d145 8b3c 2ff5 3fbd
000001a0: 09b3 a4bd 240a 8e3c 3567 e43b f6d7 8dbc
000001b0: 9541 4e3b 5ae7 473c 8cf9 8dbc fa24 6c3b
000001c0: 9d75 94bc c847 ba3c d18e a03c 8eee 4dbc
000001d0: 601a a2bc 8b22 9bbc dc60 9ebc eea5 d2bc
000001e0: c1b4 373c 37cd 4c3b d175 6dbc 11dd 0fbd
000001f0: 35de b83c c0e2 99bd 8c90 d43c 9795 40bc
00000200: cf05 09bb 5e9f c23b cc38 1d3d b5de d23c
00000210: 760e 063c ebd5 b6bb 8ba6 0dbd 9844 8f3b
00000220: 00d0 893b f4f8 333b 0b7f 373c ae93 0e3c
00000230: 3ddf e7bc 1bbc d1bc 569b 913c 6259 d4bc
00000240: 7fc3 003b 0972 8c3c 3b34 23bc 7ea9 d3bb
00000250: bd21 03bc b71a e03d db10 263b 681a 83bb
00000260: 8b54 663d 3ba0 a6bc ccb9 bc3c 371d 4bbc
00000270: cfff cd3c 7287 10bd 6662 693d 3206 0fbd
00000280: b036 183c 70fb 483c 18ba 393d d999 963a
00000290: 359e 2cbd 36e3 ddbc 4049 50bc 6f2d a23c
000002a0: d96f f43c 9faa 4f3d f302 1a3c b435 633d
000002b0: fd7d edbb 9fc2 33bd c7fe 11bc 062f 7b3c
000002c0: 407e 113d a4d9 05bc cbb5 0d3c d039 473d
000002d0: 1aed 1fbc 3879 f5bd fdb8 01bd 179d d1bc
000002e0: 2eb3 cb3b 4cdd bc3c 5b72 3c3c 21a3 e637
000002f0: 64f5 99bc 59ce 963c 0275 9b3c cc9e 003d
00000300: e289 853d b2b0 273c c96c 64bd 0310 a0bd
00000310: 5103 df3c ff9a 663c 1446 143b 765f a7bb
00000320: d55e 84bd 472a 0d3d 08fe 09bc 204a d63a
00000330: 4742 d4bd dd38 603c 4a05 01bd 996f 333c
00000340: 58e0 5e3c 31a7 d93c 0eb7 0fbd 4bb3 ad3c
00000350: 43d5 f8bc 484d 963c aece d43b 960d fabc
00000360: 7187 4b3c c585 fd3a 94ed 953c 45bd 9cbd
00000370: 38c3 053d 9ac2 95bc 9aad ef3c 5988 313c
00000380: 6c3f 8dbc 61ae 113a 9a6a 2b3c d5f9 933c
00000390: ae89 8abc dfa3 4e3c a38b 87bc fe45 0cbc
000003a0: 460a a73c 6e61 f83c db2d cf3b 604d 833c
000003b0: e4ee 35bd cbbc 03bd 2a8d 0cbd 4845 4bbb
000003c0: c26c aebc 4f59 a63d 58be 483b e434 143c
000003d0: 3120 b5bc 7b8a 593d cb9f cc3b c468 713c
000003e0: 1226 71bc ec8f 043c 0498 c4bc af17 f2bc
000003f0: 7f61 053d b66d 63bb 8cb6 633b 6e85 61bd

layer1.bias f4 [32]
0.010401094 0.02160666 0.017016945 -0.016571628 0.011121307 0.016446745 0.02714571 -0.023181776
0.023836177 0.006453742 0.011107225 0.002500633 0.019006142 -0.005868924 0.020341963 -0.00022746663
0.020615853 0.010836635 0.035215337 -0.0039609345 -0.005517997 0.017963203 -0.011446091 0.012317389
0.005719216 0.0030120963 -4.8645998e-05 -0.016298158 -0.0014197233 0.007235701 -0.0073057753 -0.020973524
00000000: 5a69 2a3c 7300 b13c 1f67 8b3c 39c1 87bc
00000010: 2436 363c 53bb 863c ae60 de3c b5e7 bdbc
00000020: 1644 c33c e979 d33b 14fb 353c a9e1 233b
00000030: c5b2 9b3c 1a50 c0bb 30a4 a63c 1c84 6eb9
00000040: 94e2 a83c 248c 313c f53d 103d baca 81bb
00000050: 50d0 b4bb 9127 933c 6388 3bbc e0ce 493c
00000060: 4368 bb3b 9766 453b 3e09 4cb8 b783 85bc
00000070: 0216 baba 7619 ed3b 4965 efbb abd0 abbc

layernorm1.weight f4 [32]
1.0528133 0.9800609 1.0206827 1.0277064 0.9726414 1.0024136 0.9571603 0.9372823
0.9833006 1.0432768 0.9802523 0.97645265 1.0340976 0.9634193 0.9847506 0.9837404
1.0052394 1.0596302 1.0324049 0.9414851 1.0441855 1.0060467 1.0211396 1.023843
0.9966941 1.0151215 0.9583001 0.9698016 0.96063596 1.0286698 0.92787343 0.9764982
00000000: 96c2 863f 45e5 7a3f bba5 823f e28b 833f
00000010: 07ff 783f 174f 803f 7508 753f bcf1 6f3f
00000020: 97b9 7b3f 188a 853f d1f1 7a3f cdf8 793f
00000030: 4f5d 843f a6a2 763f 9e18 7c3f 69d6 7b3f
00000040: afab 803f f6a1 873f d825 843f 2b05 713f
00000050: dfa7 853f 23c6 803f b4b4 823f 4a0d 833f
00000060: 5827 7f3f 80ef 813f 2853 753f eb44 783f
00000070: 3dec 753f 74ab 833f 1d89 6d3f c9fb 793f

layernorm1.bias f4 [32]
0.014050889 -0.017668257 -0.020076828 0.021150872 -0.036145806 -0.007607204 -0.029544784 -0.044853754
-0.03541074 -0.025715947 -0.028853826 -0.015304588 -0.0011429252 -0.035840828 0.002946312 -0.04064336
-0.008264309 0.013713753 -0.005218248 -0.019306893 -0.0007549796 -0.03294842 0.032113563 -0.00036089204
-0.002541462 -0.0025752967 -0.04350075 -0.032761548 -0.039852746 0.012628317 -0.05177479 -0.023005398
00000000: b335 663c 05bd 90bc 2978 a4bc 9844 ad3c
00000010: a00d 14bd da45 f9bb e707 f2bc 92b8 37bd
00000020: da0a 11bd 40aa d2bc dc5e ecbc 18c0 7abc
00000030: 35ce 95ba d5cd 12bd ea16 413b a779 26bd
00000040: 0667 07bc a6af 603c d6fd aabb 7d29 9ebc
00000050: d3e9 45ba ecf4 06bd 8389 033d 1c36 bdb9
00000060: a88e 26bb 4fc6 28bb d82d 32bd f930 06bd
00000070: a23c 23bd 00e7 4e3c cd11 54bd d175 bcbc

blocks.0.fcn_layer.weight f4 [32, 32]
0.21302867 0.09537798 0.12424262 0.24073581 0.055667274 0.047751762 0.006060708 -0.09130669
-0.07687904 -0.12304129 -0.1733585 0.084336296 -0.021035787 0.08693851 -0.046091318 -0.13590935
-0.06855431 0.2130206 -0.1845964 -0.0015003565 -0.008643947 0.21912459 0.2132358 -0.05851464
0.15991016 -0.11776235 -0.013537545 0.13705525 0.1434018 0.12460057 -0.13404733 -0.021859558
0.17741899 -0.0060462235 0.19856231 0.20701617 0.13452819 -0.05660147 0.0010485505 0.113640495
0.16370916 0.13787994 -0.070442826 -0.017730346 -0.019499844 0.12036963 -0.12293516 0.01939578
0.17154466 0.059884522 0.07363148 -0.020915864 -0.059684414 0.10479476 -0.036833324 -0.11836844
-0.030361332 0.009897128 0.11009148 0.056252997 0.13078466 -0.0470597 0.040149886 0.14145704
-0.006106612 0.16361631 0.1294624 -0.13512595 0.015058782 0.16267213 0.027124412 0.030167017
0.118599944 0.1319113 -0.15369365 -0.027852282 -0.08016688 0.14578852 0.12574786 -0.029590933
0.11340895 0.19382973 -0.03612241 0.12165212 0.098442055 0.122068636 -0.035721593 -0.10898122
-0.13134024 -0.13328849 -0.059608094 -0.031900857 0.04331831 -0.080649324 -0.14819622 -0.05484694
-0.0973232 0.11688359 0.057376724 -0.15012957 -0.16283038 0.049386814 -0.16219401 0.04475298
-0.010891305 0.06531239 0.07669041 0.050598256 0.15766084 0.117794655 0.17727047 0.05229123
-0.023537166 -0.023061128 0.13917066 0.11940708 0.15240356 0.10135269 -0.13218197 -0.11657192
-0.10894482 0.15939961 -0.11972486 -0.008888158 -0.104445025 0.011785108 -0.0035191325 -0.16015331
-0.09699949 0.06859989 0.112131506 -0.024513459 0.115654916 -0.041829634 -0.09660129 0.07923823
-0.11223871 -0.18742429 0.04548097 -0.15707573 0.18366525 0.059490878 -0.02272699 -0.008062728
-0.0866146 -0.032845642 0.10019051 0.039813377 -0.08358914 -0.13273299 0.008689161 0.06933494
0.09133238 0.048580036 -0.049980644 -0.15210834 0.16300912 -0.16720265 0.11401265 -0.076742366
-0.11058517 -0.01582906 -0.14895481 0.09253115 0.110216655 0.056932356 0.022985028 0.02766007
-0.023650045 -0.006917502 0.17248806 0.09220326 0.17853738 -0.1580321 -0.05995929 0.12764916
-0.17462294 0.024916254 0.17710605 -0.017660884 0.015719688 -0.073165916 -0.17012542 0.07232928
0.14427325 -0.012114972 -0.01416445 0.027070735 -0.15813972 0.11493929 -0.017516226 0.036724914
0.13485195 0.08542144 0.2299606 0.081400186 0.009241678 -0.064728 0.066366695 0.05203678
0.0036326696 0.16748714 0.13806146 0.1384993 0.04976933 -0.026938124 0.044226438 0.07525818
0.09672722 0.12550354 -0.13877639 0.19203448 -0.16342023 0.105434656 -0.011908441 -0.098059334
-0.07885016 0.1409389 0.10950382 0.04908189 -0.06926594 0.16769068 -0.10361085 0.11615844
-0.04391486 0.042577356 -0.09138314 0.004873383 -0.04527378 0.03965411 0.10071543 0.030305857
0.045596853 -0.037160695 0.13571267 0.049525462 -0.17867239 0.0867687 0.13812517 0.12929016
-0.059563152 0.04872364 0.17683855 -0.024007749 0.14858627 0.099468894 -0.10220183 -0.1032916
-0.03171404 0.1233203 -0.046615567 -0.18829253 0.09050117 -0.1285809 0.09472844 -0.16795327
00000000: 3024 5a3e 8855 c33d ea72 fe3d 7383 763e
00000010: 5e03 643d 5a97 433d e798 c63b 00ff babd
00000020: c272 9dbd 12fd fbbd e484 31be 82b8 ac3d
00000030: 3e53 acbc d10c b23d 40ca 3cbd d22b 0bbe
00000040: 3466 8cbd 1222 5a3e d706 3dbe 9ca7 c4ba
00000050: 579f 0dbc 3262 603e 7c5a 5a3e 0cad 6fbd
00000060: 7dbf 233e 632d f1bd 94cc 5dbc 3658 0c3e
00000070: ecd7 123e 952e ff3d b443 09be d112 b3bc
00000080: 53ad 353e 661f c6bb eb53 4b3e 0cfc 533e
00000090: c2c1 093e f1d6 67bd 846f 893a 59bc e83d
000000a0: 60a3 273e 6630 0d3e 5444 90bd 3b3f 91bc
000000b0: 23be 9fbc 5a84 f63d 6ec5 fbbd e6e3 9e3c
000000c0: 67a9 2f3e 7949 753d 1acc 963d bf57 abbc
000000d0: a577 74bd a39e d63d 8ade 16bd 276b f2bd
000000e0: 54b8 f8bc 9027 223c a477 e13d 8b69 663d
000000f0: 6aec 053e acc1 40bd 3574 243d 1dda 103e
00000100: f919 c8bb 098b 273e cb91 043e 755e 0abe
00000110: 1cb9 763c 8693 263e 0434 de3c d220 f73c
00000120: 87e4 f23d c113 073e de61 1dbe 782a e4bc
00000130: 882e a4bd 9649 153e 0cc4 003e af68 f2bc
00000140: f442 e83d 4d7b 463e 18f5 13bd bf24 f93d
00000150: fd9b c93d 1fff f93d ce50 12bd 8c31 dfbd
00000160: 0e7e 06be c77c 08be 9e27 74bd 79aa 02bd
00000170: 8a6e 313d 792b a5bd c0c0 17be 2fa7 60bd
00000180: 6351 c7bd aa60 ef3d db03 6b3d 91bb 19be
00000190: 02bd 26be d449 4a3d 3016 26be e74e 373d
000001a0: 7271 32bc 81c2 853d dd0f 9d3d 1e40 4f3d
000001b0: d871 213e 533e f13d 6486 353e 542f 563d
000001c0: 04d1 c0bc b1ea bcbc c182 0e3e b38b f43d
000001d0: ae0f 1c3e 0092 cf3d b65a 07be 42bd eebd
000001e0: 761e dfbd a739 233e 4f32 f5bd a39f 11bc
000001f0: 46e7 d5bd 5316 413c 3fa1 66bb 3bff 23be
00000200: aba7 c6bd 197e 8c3d 34a5 e53d 73d0 c8bc
00000210: 7cdc ec3d 8d55 2bbd e6d6 c5bd a747 a23d
00000220: 69dd e5bd 27ec 3fbe 414a 3a3d 76d8 20be
00000230: be12 3c3e b5ac 733d f42d babc 8819 04bc
00000240: ff62 b1bd 2789 06bd af30 cd3d 5a13 233d
00000250: c830 abbd 28eb 07be fc5c 0e3c 7aff 8d3d
00000260: 790c bb3d dcfb 463d 81b8 4cbd 4ac2 1bbe
00000270: ddeb 263e 2c37 2bbe 777f e93d 1a2b 9dbd
00000280: 7a7a e2bd f2ab 81bc 9c87 18be f980 bd3d
00000290: 45b9 e13d e731 693d 194b bc3c 5f97 e23c
000002a0: bdbd c1bc 36ac e2bb b6a0 303e 10d5 bc3d
000002b0: 81d2 363e 2bd3 21be df97 75bd 76b6 023e
000002c0: 5bd0 32be 2c1d cc3c 4a5b 353e 8fad 90bc
000002d0: 93c6 803c 03d8 95bd 5c35 2ebe 6021 943d
000002e0: 5ebc 133e e07d 46bc 0212 68bc 72c3 dd3c
000002f0: 61ef 21be 4a65 eb3d 307e 8fbc dd6c 163d
00000300: a116 0a3e 70f1 ae3d cb7a 6b3e 24b5 a63d
00000310: 686a 173c 1d90 84bd 43eb 873d 8524 553d
00000320: 1512 6e3b c081 2b3e fc5f 0d3e c3d2 0d3e
00000330: edda 4b3d 57ad dcbc c826 353d f620 9a3d
00000340: ec18 c63d 0084 003e 661b 0ebe b0a4 443e
00000350: a257 27be 20ee d73d 9f1b 43bc 55d3 c8bd
00000360: 317c a1bd 4952 103e 8a43 e03d 180a 493d
00000370: 4ddb 8dbd 1bb7 2b3e ed31 d4bd 7ae4 ed3d
00000380: 11e0 33bd 9865 2e3d 1527 bbbd e6b0 9f3b
00000390: 0071 39bd 596c 223d e443 ce3d fd43 f83c
000003a0: c4c3 3a3d d035 18bd 43f8 0a3e 36db 4a3d
000003b0: e5f5 36be cab3 b13d af70 0d3e a464 043e
000003c0: 7ef8 73bd 7192 473d 2a15 353e e6ab c4bc
000003d0: 0027 183e 59b6 cb3d 314f d1bd 8c8a d3bd
000003e0: 95e6 01bd 5a8f fc3d f7ef 3ebd c2cf 40be
000003f0: ad58 b93d b6aa 03be fc00 c23d f1fb 2bbe

blocks.0.fcn_layer.bias f4 [32]
-0.10186411 -0.057086524 0.15895373 0.1012085 0.09587861 -0.09002091 -0.09269655 0.028189037
-0.1663319 -0.0026632827 0.054446127 0.019821845 -0.0050697033 -0.09158921 0.029795721 0.08825557
0.038609758 0.016744753 -0.107672006 0.16930737 0.007111183 0.048912402 0.0382769 0.14846279
0.054464597 0.119623 -0.12764154 -0.14140128 -0.11601624 -0.14007604 0.014206065 -0.0067689237
00000000: 219e d0bd 8fd3 69bd c4c4 223e 6746 cf3d
00000010: 015c c43d e25c b8bd b0d7 bdbd b2ec e63c
00000020: e952 2abe 788a 2ebb e702 5f3d 6c61 a23c
00000030: c11f a6bb 2093 bbbd 2816 f43c 56bf b43d
00000040: 4425 1e3d 4b2c 893c 2483 dcbd e95e 2d3e
00000050: ed04 e93b 5f58 483d 3dc8 1c3d a106 183e
00000060: 4516 5f3d e7fc f43d 77b4 02be 7fcb 10be
00000070: ec99 edbd 1870 0fbe 8ec0 683c d9cd ddbb

blocks.0.layer_norm.weight f4 [32]
1.1696526 1.1389475 1.0805582 1.2661097 1.3610427 1.2807628 1.1000651 1.2857944
1.3227634 1.1067057 1.164854 1.0868866 0.9218144 1.15618 1.3327426 1.3845929
1.0757103 1.0595446 1.3000712 1.0572482 0.89293295 1.2463188 1.2852755 1.1566768
1.1258974 0.9371973 0.9602205 0.9528892 1.1562957 1.1187371 1.0253067 1.2274249
00000000: 2db7 953f 08c9 913f bb4f 8a3f e20f a23f
00000010: a636 ae3f 09f0 a33f efce 8c3f e994 a43f
00000020: 5050 a93f 88a8 8d3f f019 953f 1a1f 8b3f
00000030: 07fc 6b3f b5fd 933f 4f97 aa3f 573a b13f
00000040: e0b0 893f 289f 873f bc68 a63f e953 873f
00000050: 4197 643f 6087 9f3f e883 a43f fc0d 943f
00000060: 681d 903f 2aec 6f3f 03d1 753f 8cf0 733f
00000070: 7f01 943f c732 8f3f 403d 833f 421c 9d3f

blocks.0.layer_norm.bias f4 [32]
0.12861207 0.1154671 0.063172534 0.25820136 0.29274732 0.26531264 0.096801706 0.26176032
0.2822404 0.046304915 0.09671362 0.06653391 -0.07838744 0.094962426 0.2839902 0.3001804
0.060792755 0.05172264 0.27622756 0.017478023 -0.097894944 0.2573794 0.2612641 0.09416899
0.103978515 -0.06883983 -0.03019788 -0.022399167 0.14194441 0.10370709 0.008970632 0.252075
00000000: e2b2 033e 047a ec3d 9a60 813d f832 843e
00000010: fae2 953e 0fd7 873e f93f c63d 7305 863e
00000020: d081 903e 39aa 3d3d ca11 c63d ee42 883d
00000030: 9889 a0bd a97b c23d 2a67 913e 3fb1 993e
00000040: d301 793d 1edb 533d b36d 8d3e 122e 8f3c
00000050: 257d c8bd 3cc7 833e 68c4 853e acdb c03d
00000060: b0f2 d43d e6fb 8cbd 8b61 f7bc 757e b7bc
00000070: e059 113e 6264 d43d 8ff9 123c f90f 813e

last_layer.weight f4 [1, 32]
0.22655556 0.1841021 0.16918878 -0.3613631 -0.3438466 -0.33177948 0.23893942 -0.33792832
-0.34341455 0.14833024 0.1460675 0.22402391 -0.07593414 0.19598575 -0.3314459 -0.34557235
0.21423413 0.057569075 -0.31215018 0.17667954 -0.01575959 -0.32329854 -0.34150532 0.29267827
0.16266446 0.054477073 0.0054871477 -0.12168508 0.1233125 0.22776169 0.07945933 -0.352106
00000000: 2efe 673e 4385 3c3e d33f 2d3e 9604 b9be
00000010: a90c b0be 00df a9be 89ac 743e f104 adbe
00000020: 08d4 afbe e2e3 173e b892 153e 8666 653e
00000030: 5c83 9bbd 7db0 483e 47b3 a9be dcee b0be
00000040: 3160 5b3e 8dcd 6b3d 26d2 9fbe 7beb 343e
00000050: 411a 81bc 6387 a5be c9d9 aebe edd9 953e
00000060: 8391 263e 5a23 5f3d 88cd b33b 0736 f9bd
00000070: 448b fc3d 5c3a 693e 93bb a23d 3d47 b4be
