models/Open_Terminal.onnx (onnx, 205430 bytes, 9 tensors)

layer1.weight f4 [32, 1536]
000000 b6 fe 68 bb ff 9b bd bc 55 84 78 bc bf 1d 2e 3c
       -0.003555221 -0.023145674 -0.015168269 0.010627209
000010 00 97 5d 3b d4 64 6e bc 4f 33 81 bb 26 81 92 bc
       0.0033811927 -0.0145504065 -0.003942884 -0.017883848
000020 b6 e7 ac bc b0 57 19 3b 4a 21 93 3c 5d 03 bb bb
       -0.021106582 0.0023398213 0.01796021 -0.005707188
000030 3e c5 ba 3c 38 c4 03 3c 4c fd b5 bc 7f 60 94 3a
       0.02279913 0.008042388 -0.022215508 0.0011320262
000040 47 4b ef bb 6a 94 26 3c d2 ea 19 bc 2f c2 d4 bb
       -0.007302675 0.010167221 -0.009394364 -0.006492875
000050 4f cb a4 3c 19 89 9a 3c 99 37 2d 3d bf 85 18 3d
       0.020116476 0.018864201 0.04228935 0.037236925
000060 be 86 11 ba 61 c5 5d 3c 4e 94 9e 3a 87 68 1e 3c
       -0.0005551389 0.013535828 0.0012098642 0.009668476
000070 81 83 21 3d cc 92 4f bc 4b a7 d1 bb bc 9b c9 bb
       0.039432053 -0.012669276 -0.0063981167 -0.006152598
000080 68 1c a0 3c c4 f6 3b 3c 80 71 a6 bc 5f 58 b2 3c
       0.019544795 0.011472408 -0.020317793 0.021770654
000090 d2 c0 4c bb 8c 3e 03 3d 40 cc 06 3d b0 6d 8f bc
       -0.003124286 0.03204207 0.03290963 -0.017508358
0000a0 c1 b2 c8 3c 0e 26 99 bc 91 6d b2 bb c9 25 32 3b
       0.024499299 -0.018694904 -0.0054451902 0.0027183166
0000b0 ed ee e4 3a 47 ca cf 3b ec 48 b6 bc e3 c9 9b 3c
       0.0017466225 0.006341252 -0.022251569 0.019017166
0000c0 19 bb 6f bb 6a bf 1e 3d 85 8d 18 3b 14 0f da bc
       -0.0036580025 0.038756765 0.0023277712 -0.026618518
0000d0 b6 8b da 3c e6 27 39 bc cf 00 37 bc 6c 75 ba ba
       0.026677947 -0.011301016 -0.011169626 -0.0014225668
0000e0 d5 0e 1e 3c ed 18 0a bd 0d f9 6a 3b 52 c1 6f 3c
       0.009647091 -0.033715177 0.0035854012 0.0146334935
0000f0 16 3c fe 3b 22 b9 6f 3c db ef d4 3c 0b 17 97 bc
       0.0077586276 0.014631541 0.025993278 -0.018443605
000100 d7 23 5d bc 4d d8 c8 3c 7f f6 90 bb 84 17 11 bc
       -0.013497314 0.024517203 -0.004423916 -0.008855704
000110 a5 dc fd bb 88 84 32 bc 84 f0 00 3c 04 20 e2 bc
       -0.00774725 -0.010895856 0.007869843 -0.027603157
000120 ec d2 a0 bc f0 f3 1e 3b 33 1c 45 bc 33 63 21 3d
       -0.019631825 0.0024254285 -0.012030649 0.039401244
000130 3f 2a fb bb c7 cb a7 bc 13 58 8d bc f8 fe 7d 3c
       -0.0076649482 -0.02048291 -0.017253911 0.015502684
000140 95 d8 d1 3b 9f 09 a4 bc 8c da 6f bc aa 18 37 3c
       0.0064039924 -0.020024119 -0.014639508 0.011175314
000150 d9 35 a7 3c 1d c7 fe 39 27 e0 fe bc 46 8a a9 3b
       0.020411419 0.00048595006 -0.031112744 0.005173954
000160 41 eb 63 bc 70 b4 92 3b 49 78 88 3b 85 87 42 3c
       -0.013911069 0.004477076 0.0041647297 0.011873131
000170 dc 89 33 3c 4e eb 7b 3c 30 d5 b0 bb 70 b4 3f bc
       0.010958161 0.015375925 -0.0053965077 -0.0117007345
000180 55 a6 27 bc 56 56 32 bc 83 39 01 bb b2 8a c6 3c
       -0.010232528 -0.010884842 -0.0019718118 0.024236057
000190 83 86 be 3a 51 ca c1 3b 53 32 93 3b 39 af a6 3c
       0.0014535937 0.0059140106 0.004492083 0.020347225
0001a0 f2 49 93 bc c0 de c0 3c 15 2d 1e 3c 1d 7c 55 bd
       -0.017979596 0.023543715 0.009654303 -0.052120317
0001b0 ed 7c 33 bc 87 90 66 3c e3 b1 55 bc 6b 64 a0 bc
       -0.010955078 0.014072544 -0.0130429 -0.019579133
0001c0 e5 bf 60 3d 49 ff 91 3c 92 0e b1 3c 3d bf ac b6
       0.054870505 0.017821925 0.021613393 -5.1482625e-06
0001d0 19 d9 35 3b d1 7a 74 3c 6e a2 2d 3c cc 8e 94 3c
       0.0027747808 0.01492186 0.010597808 0.018134497
0001e0 84 23 29 3c bb 52 0a 3d 08 48 79 3c 60 d7 99 3c
       0.010323409 0.033770304 0.0152149275 0.018779457
0001f0 da 4b 00 3c e3 3c cf 3c 9d c3 9e 3c ac 6f e4 3b
       0.007830584 0.025297588 0.019380385 0.00697132
000200 e2 de 95 3c e9 de 03 3d 89 cb 2c bc 98 9b 26 3c
       0.018294755 0.032195006 -0.010546573 0.010168932
000210 4e 1e e8 bb 4b 04 0b 3c 73 30 23 3d 16 7e 02 bc
       -0.0070836907 0.00848491 0.039841127 -0.007964632
000220 ae 76 b4 3c 8a a3 c3 3c ef 01 c1 bb 5f 53 b8 3a
       0.022029247 0.023881692 -0.005890123 0.0014062932
000230 13 01 86 ba 21 a2 ed 3c 85 a1 91 3c fd d1 b0 3c
       -0.0010223709 0.029007973 0.017777214 0.021584505
000240 8c 3a 8b 3c 35 cb 78 3d 94 3c 5e bc c1 0f e7 b9
       0.01699569 0.06074067 -0.013564248 -0.0004407149
000250 e2 32 0f bd 35 7b 31 3c 1d d0 e3 3b 87 24 9f 3c
       -0.034960635 0.0108325975 0.0069522993 0.019426597
000260 35 63 28 bc 1b 6b 93 3a ba c2 a1 3c 9b 9d c3 3c
       -0.010277559 0.001124713 0.019746173 0.023878863
000270 d5 87 14 3c 4f c4 f5 bb 4e a3 43 3b 1d 83 c8 bc
       0.009065588 -0.0075002084 0.0029851976 -0.024476582
000280 ef ab 55 39 67 dd bb ba 6e 5e 0e bd ec 24 86 3b
       0.00020377313 -0.0014332951 -0.034758024 0.004093757
000290 7d d3 06 bd f3 af f7 3c 8a 33 5e 3c b7 cf dc 3c
       -0.032916535 0.030235266 0.013562093 0.026954515
0002a0 cb 7b 83 bb 5f a5 41 3d 6c 8b e3 bb ee bc 34 3d
       -0.00401256 0.04727685 -0.0069441106 0.04412549
0002b0 ac d4 fc 3b 90 d6 a2 bc 7b 2d 71 3a f7 fe ae 3b
       0.007715782 -0.019877702 0.00092001975 0.005340453
0002c0 01 f9 f5 3a 89 4b 3b 3c 17 a3 bd bc f9 25 a1 bc
       0.0018766226 0.011431583 -0.023149056 -0.019671427
0002d0 14 97 ac 3b 4e 0b bd bc 94 6f 3e bb 06 42 cb bc
       0.0052670334 -0.02307668 -0.0029058205 -0.024811756
0002e0 f5 ff c2 bc f5 24 05 bc ec 85 d7 3c 1e 05 cd bb
       -0.02380369 -0.008126487 0.026308976 -0.0062567135
0002f0 37 31 d2 ba 86 31 2c 3c 4d 47 e2 3b f6 a5 00 bd
       -0.0016036396 0.010509854 0.0069054724 -0.031408273
000300 f3 49 10 bb 07 87 0e bc 78 6e db 3c b1 c6 1f 3d
       -0.0022016733 -0.008699185 0.026786074 0.039007846
000310 1a c5 f8 3b fb ff a1 3b 6c 04 35 bc a9 c3 f7 3b
       0.0075918557 0.0049438453 -0.011048418 0.0075611663
000320 29 36 84 bc 9f 7e a4 bc 00 da 3f 3c 7e 24 20 bc
       -0.016139107 -0.020079909 0.01170969 -0.009774325
000330 df 15 8f bb 6a 0b 70 3b 58 3f e0 3c 73 c1 a8 3b
       -0.004366621 0.0036627897 0.027373955 0.005150014
000340 a1 ff fd 3c 81 16 48 bc 84 1a 80 3c 43 39 bd 3b
       0.031005682 -0.012212397 0.015637644 0.0057746484
000350 eb 1e 44 3c 35 f0 53 3c 22 c8 eb 3c 4f 27 8b 3a
       0.011970262 0.012935688 0.028781954 0.0010616573
000360 e9 4f de 3c 04 86 05 3b 62 9b 09 bc cd ab 24 3d
       0.027137714 0.002037407 -0.008398863 0.040202904
000370 d9 fe 75 bc a3 91 20 3c 33 24 f2 bb 62 61 5d 3c
       -0.015014374 0.0098003475 -0.007389569 0.013511987
000380 5d 9b 69 bc b2 9a fb bc e7 76 fa bc 4b 0c c2 bc
       -0.014258233 -0.030713413 -0.030574275 -0.023687502
000390 aa 9d 72 bc 35 6d 7b bb df a6 1e 3d 09 f3 54 3c
       -0.014808098 -0.0038364653 0.03873336 0.012997397
0003a0 ea 2d fc 3c d8 da d6 ba e2 c5 d7 bb c2 04 9f 39
       0.030783612 -0.0016392125 -0.0065848688 0.00030330388
0003b0 4e 7e a1 3c d5 13 90 3c c3 41 56 b9 7c fb 8e bc
       0.019713547 0.017587582 -0.00020433129 -0.017453901
0003c0 e1 d8 8c bb 55 35 bb 3d bb 09 19 bc bc d6 0c bd
       -0.004298315 0.09141032 -0.009340699 -0.034384474
0003d0 ac 93 94 bc 94 a1 87 3c 68 69 73 3c a8 34 69 bc
       -0.018136822 0.016556539 0.014856674 -0.014233746
0003e0 31 95 ff bb be 0e 80 bc 6c 12 4b bc 45 11 9b 3c
       -0.0077997674 -0.01563203 -0.012394529 0.018929133
0003f0 49 a9 13 3b 91 a4 89 3c aa b9 62 3b 57 e7 ea bc
       0.0022531322 0.016802104 0.0034595528 -0.028674765

layer1.bias f4 [32]
000000 e6 47 36 bc 5c 0b b4 bc 77 98 28 bd 82 99 27 3c
       -0.01112554 -0.021978073 -0.041161027 0.01022947
000010 dd b3 9d 3c b6 fa a0 3c 5b 20 2d 3c 0b 96 53 3c
       0.019250805 0.019650798 0.010566796 0.012914191
000020 3d f3 ad bb d7 97 97 bc 14 0f 39 3b 0b 36 45 bc
       -0.0053085373 -0.01850502 0.0028237747 -0.012036811
000030 be 7c 6b 39 cf 7e 57 3c f7 9e 0a 3b 3c 27 2f 3b
       0.00022457817 0.013152792 0.002115188 0.0026726266
000040 fa e7 91 3b b1 31 00 bc 8a 54 70 bc a1 6b 82 bc
       0.0044527026 -0.007824347 -0.014668593 -0.015920462
000050 a7 6c b1 bb 8d 7f 63 3b 78 e9 c5 bc 3b f0 12 bc
       -0.0054145637 0.0034713477 -0.024159178 -0.008968408
000060 44 cb ec 3b 8f 42 8a bb d6 3d 34 3c e4 f1 95 3b
       0.0072263796 -0.00421936 0.011001071 0.0045759548
000070 cc 52 dc bc 59 ff 6f bc a1 85 c7 bc 49 31 c7 bc
       -0.02689495 -0.014648282 -0.024355711 -0.024315493

layernorm1.weight f4 [32]
000000 bd b3 7e 3f 93 db 7a 3f ab 1c 7a 3f 30 fd 7f 3f
       0.9949301 0.97991294 0.97699994 0.9999571
000010 2e a6 83 3f ee bd 7c 3f 38 2c 77 3f 71 58 7d 3f
       1.0285089 0.9872731 0.9655185 0.98963076
000020 70 0e 7e 3f d0 d6 74 3f 0b 94 7b 3f 13 b3 7a 3f
       0.9924078 0.9564028 0.9827277 0.97929496
000030 fe d1 87 3f c7 04 7c 3f 12 78 83 3f c3 21 82 3f
       1.061096 0.9844479 1.0271018 1.0166553
000040 95 20 82 3f 53 9a 87 3f 0a ff 83 3f de 1d 7a 3f
       1.0166193 1.0593971 1.0312207 0.97701824
000050 3a f4 84 3f 8b da 7f 3f 55 dd 7d 3f 90 76 86 3f
       1.0387032 0.99942845 0.9916585 1.0504932
000060 20 e3 84 3f ac cb 75 3f b9 b6 7c 3f 55 6d 6d 3f
       1.0381813 0.96013904 0.9871631 0.9274495
000070 1e 9b 7c 3f a2 30 79 3f 27 b8 7a 3f b2 2c 97 3f
       0.9867419 0.9733983 0.97937244 1.1810515

layernorm1.bias f4 [32]
000000 ac f8 43 3d bf aa bd bc 53 0a 88 3e ae 1a 84 bc
       0.047844574 -0.023152707 0.26570377 -0.016126003
000010 4a c3 be 3c 01 ce 9a 3c 7a 8a 1c bd b9 1a a3 bc
       0.02328648 0.018897058 -0.038218 -0.019910203
000020 6a e7 5e 3c 26 3f d1 bc 0c 3e 04 bd 0a 0e 4c 3b
       0.013604978 -0.025542807 -0.032285735 0.0031136298
000030 01 da 09 3d 76 e3 bd bc 8a 60 80 3b 63 4e a8 3c
       0.03365517 -0.02317975 0.0039177584 0.02054519
000040 d7 70 98 3c 3c d7 2a 3d 94 64 f8 bb e8 ea 1e bd
       0.018608494 0.04170917 -0.007580349 -0.038798243
000050 ed 28 38 3d 8f 28 09 3c 2c 25 98 3c 20 e4 47 3d
       0.044960905 0.008371486 0.018572412 0.04880154
000060 b7 23 42 3d 95 47 d3 bc 60 1a af bc 1f 5e 61 bd
       0.04739734 -0.025790969 -0.021374881 -0.0550214
000070 2c 05 d3 bc 09 81 95 3b 74 87 a2 bc dc fa 55 3e
       -0.025759302 0.0045625013 -0.01983998 0.20896477

blocks.0.fcn_layer.weight f4 [32, 32]
000000 4f 6a 29 3e fa f3 f1 bd d8 c3 39 3e 0b b8 d9 3d
       0.1654446 -0.11814113 0.18141115 0.106308065
000010 2e f7 13 be 4a 32 90 bd 2f a1 94 3c f9 6c 48 bc
       -0.1444976 -0.07040842 0.018143265 -0.012233012
000020 f4 b5 29 3e 30 7c f0 3d 99 d2 96 bd 7e 2f 31 bc
       0.16573316 0.11742437 -0.07364387 -0.010814546
000030 32 7b 26 bd 40 bd 52 bd ce 49 3a bb cc c2 2b 3d
       -0.040644832 -0.051450014 -0.0028425339 0.04193382
000040 f7 b0 7d 3d b0 25 95 bd 56 70 13 3e 6f 13 2f be
       0.061936345 -0.07282579 0.14398322 -0.17097257
000050 03 e2 62 bd 71 70 f5 bd 18 92 df 3d 14 53 5f 3d
       -0.055391323 -0.11984337 0.10916537 0.05452259
000060 9e b7 62 3d 85 a0 5e bd 9d f2 46 3d 71 04 76 bd
       0.055350892 -0.054352302 0.048571218 -0.06006283
000070 49 15 01 be 8a 6a b9 bd 66 52 ce 3d fe 53 e2 bc
       -0.12605776 -0.09053524 0.1007431 -0.027627941
000080 06 4b 09 be 23 fc 61 bd f9 0e 87 3d cb 89 0c bd
       -0.13407525 -0.055172097 0.06594653 -0.034311097
000090 78 f0 06 bc 48 4c 2e 3d be 71 07 3c 3f 71 ff bd
       -0.008236043 0.042553216 0.008266864 -0.12472772
0000a0 20 2f b5 bd 76 31 d0 3d fb 48 f3 3b a4 8b 08 be
       -0.08846879 0.10165684 0.0074244714 -0.13334519
0000b0 cb dd d7 bd 72 26 f0 3d 44 67 1f 3e 6f 7a 27 3e
       -0.105403505 0.11726083 0.15566736 0.16355298
0000c0 9e f3 f4 3c 75 0e 1e be 64 54 a0 3d 2a 75 db 3d
       0.029901322 -0.15435202 0.07828596 0.10715707
0000d0 fc 93 9b bd bb d4 c9 3c 83 96 6f 3d fb 64 55 be
       -0.07596585 0.02463757 0.05849315 -0.20839302
0000e0 7c 18 06 3c 92 87 06 3e 35 f1 af bd e9 15 10 be
       0.0081845485 0.13137653 -0.085909285 -0.14070858
0000f0 05 cc 96 3d b9 29 bc 3d 3d 28 82 bd 0c 29 30 be
       0.073631324 0.091876455 -0.06355331 -0.17203158
000100 63 df 3d 3e 5b 08 0a be 52 5f f6 bc 21 ab 22 bd
       0.18542247 -0.1347975 -0.03007475 -0.039713982
000110 5a 1f aa bd 5d e0 08 3d e4 61 b2 bd 18 19 e2 3d
       -0.08306761 0.033417094 -0.087100774 0.110399425
000120 8b da c9 3d 9a 08 f8 bd 15 86 ca bc 86 ab a7 bd
       0.09856137 -0.121110156 -0.024722138 -0.081870124
000130 2f a7 c4 3d 9c b7 f8 3d b3 59 f4 bc 87 50 be bd
       0.096022 0.12144396 -0.029827928 -0.09292703
000140 cd f0 24 bd f6 dd 87 bc dd 19 38 3e 5c 36 68 bd
       -0.040268708 -0.016585331 0.17978616 -0.056692466
000150 ed 3e 7b 3e e5 3c c9 bd 2b b5 4d bd c8 06 59 3d
       0.24535723 -0.09826068 -0.050221603 0.052984983
000160 20 a1 21 be 49 db f0 bd db 1a 45 be 87 e9 25 be
       -0.1578412 -0.11760575 -0.19248526 -0.16202365
000170 24 3d 1f 3b 36 73 07 bd e6 82 64 bd e6 5b a1 3e
       0.0024297917 -0.033068858 -0.055788897 0.31515425
000180 37 e3 fe bc e1 9b 61 bb 5b 26 cf 3b a2 e9 da bc
       -0.031114204 -0.0034425186 0.006321711 -0.026722733
000190 d7 9f 8d bd 3e 8d cc bc bb 18 1c 3d fa fb e5 3d
       -0.06915253 -0.024969693 0.038109522 0.11229701
0001a0 48 b5 e9 3d e4 7e e2 3c 16 82 08 3e a5 3c 08 be
       0.1141153 0.027648397 0.13330874 -0.13304384
0001b0 7e f6 60 3d 7e 25 0c 3e 07 65 f2 bc f1 94 7f 3d
       0.054922573 0.13686177 -0.02958919 0.0623979
0001c0 18 88 9f 3c c3 c4 dc 3d eb 68 19 be 01 7c c1 bd
       0.019474074 0.10779717 -0.1498143 -0.0944748
0001d0 a5 47 f3 3d dd cf a6 bd 63 e8 15 3e 36 04 87 bd
       0.118788995 -0.081451155 0.1463943 -0.065926
0001e0 52 42 7d bd 30 fd 05 bd 7e 1d 1e 3d a3 18 06 3e
       -0.061830826 -0.03271216 0.038602345 0.13095336
0001f0 d5 94 e1 bd 94 00 90 3b 2c ba 38 3d 00 f7 2b be
       -0.110147156 0.0043946 0.045099422 -0.16793442
000200 d7 76 11 be e1 30 0a be 0d 71 b7 bd 06 27 fc 3d
       -0.1420549 -0.13495208 -0.089571096 0.12312131
000210 6c b2 54 3c fa ad 02 3e d5 23 a3 3d 61 d9 a2 3d
       0.012981992 0.1276168 0.07965819 0.07951618
000220 6e 54 59 be 6b d8 3a bd 17 31 a4 bd 69 83 05 3e
       -0.21223614 -0.04561655 -0.08017176 0.1303841
000230 42 af 5d be e7 a3 e6 3d 1b 35 a9 3c 41 65 9d 3e
       -0.21648887 0.11261731 0.020655205 0.30741313
000240 9a 11 6f 3d be 96 66 3d 04 8a 96 3d a2 2e a1 bd
       0.058366396 0.056296103 0.07350543 -0.07870223
000250 3c c1 42 bd d6 15 ed bd ad 17 3c be 67 28 a9 3c
       -0.047547564 -0.115764305 -0.18368407 0.020649148
000260 e5 6a 7e 3d cb 63 a5 bc 34 74 bc 3c 54 4e a3 bd
       0.06211366 -0.020189187 0.023004629 -0.07973924
000270 c4 d9 ae bd 89 6b 23 bd 87 81 af 3d d3 0a 3b be
       -0.08537629 -0.039897475 0.08569627 -0.18265848
000280 63 61 08 3d 16 9e 06 3d 76 72 9b 3e 38 4d 16 be
       0.033296 0.032865606 0.30360764 -0.14677894
000290 13 4a af bc e8 a0 b9 bd 1c 83 aa 3b b1 e2 09 3d
       -0.021397626 -0.090638936 0.0052036177 0.033663455
0002a0 00 a5 7c 3c 80 c6 1e 3d 86 91 f6 3d a1 fe 76 3d
       0.015420198 0.038763523 0.12039475 0.060301427
0002b0 23 c3 ad 3c a1 98 1e be 77 62 50 bc 13 56 67 3e
       0.021211213 -0.15487911 -0.012718788 0.22591428
0002c0 4b db 0a be ba 53 3a be 75 a9 8e 3d 0d b2 18 3d
       -0.13560216 -0.18196002 0.06965915 0.037279177
0002d0 30 0b a7 3d 76 4b b5 3d 9f 15 03 bd 35 7f 85 3d
       0.08156431 0.08852284 -0.03200304 0.065184034
0002e0 b7 c4 06 3e 58 b6 ec 3c fe f5 1b be 63 1b 2c be
       0.13160978 0.028895542 -0.15230557 -0.16807322
0002f0 97 96 56 3b 9c 03 85 bd 5c c5 86 3d aa 9d 22 3e
       0.0032743567 -0.06494829 0.06580612 0.15880457
000300 d6 d6 1b be 60 0a cc 3b fa 60 97 3d f4 42 2b be
       -0.15218672 0.0062268227 0.07391544 -0.1672476
000310 fb d5 39 3e f4 78 26 3e 77 24 25 3c d7 c2 34 bb
       0.18148033 0.16257077 0.010079495 -0.0027581954
000320 22 bd 02 be a5 88 0f be fb e9 2b be 90 6b 2c 3e
       -0.12767461 -0.1401697 -0.16788475 0.16837907
000330 44 42 91 bd e7 38 28 3e 0e cf 1c be 2e 8a 11 be
       -0.07092717 0.16427957 -0.1531336 -0.14212868
000340 25 19 da 3d 0d d5 a6 bd 17 56 16 3e 1e 19 02 be
       0.10649327 -0.08146105 0.14681278 -0.12704894
000350 3b 1e 81 bd a2 29 44 3e 01 c6 d8 3d 0e 5f 7f bc
       -0.06304594 0.19156507 0.10584641 -0.015586628
000360 29 1c ae bd 5e ef d2 bd 3d 8a 1b bd e5 d7 35 3d
       -0.08501465 -0.10299562 -0.03797363 0.044395346
000370 37 7f 88 bd 16 4a 71 bd b9 c6 f3 3d 12 da 5b bd
       -0.06664889 -0.058908544 0.11903138 -0.053674765
000380 05 92 15 bc 90 33 a0 bc dd bc 44 bd 8a 16 ce 3d
       -0.009129052 -0.019555837 -0.048031677 0.10062893
000390 7f 61 d0 3d 57 b1 cc bd 98 d5 db bd 9d 06 04 be
       0.10174846 -0.099947624 -0.10734099 -0.12893148
0003a0 cb 0c 2c 3c 97 5d 61 bc f8 82 d2 3d 08 4b 44 3e
       0.010501097 -0.013755224 0.102788866 0.19169247
0003b0 7b 43 36 3e 09 83 06 3d 0b d9 36 bd c6 0d 56 be
       0.1779918 0.03283981 -0.044640582 -0.20903692
0003c0 c8 37 c5 3d ec 19 b3 3d ba d9 f5 3c af 03 26 be
       0.0962978 0.087451786 0.030011047 -0.16212343
0003d0 da 2a 0c 3d d4 d3 54 3e 5d 27 2f 3d 33 63 98 bd
       0.034220554 0.20783931 0.04276215 -0.07440796
0003e0 e6 12 7a bd a3 71 e0 bd 32 bb 14 bd 91 29 9d bd
       -0.06105318 -0.109591745 -0.036311336 -0.07673944
0003f0 c0 12 19 be 92 c9 d9 bd 23 ac df bd 14 42 49 3d
       -0.14948559 -0.106341496 -0.10921504 0.049135283

blocks.0.fcn_layer.bias f4 [32]
000000 39 bc 37 3e 27 ef bf 3d 4e 54 db bd d7 3a 59 3d
       0.17942895 0.093717866 -0.10709439 0.05303463
000010 b7 be 6a 3b 0e bf eb bd b8 8e 34 3e df ff 55 bd
       0.0035819241 -0.1151105 0.17632568 -0.05224597
000020 39 e2 f3 3c 9c fb bb bc c9 cb 93 3d 0a c0 a7 3d
       0.029770957 -0.022947125 0.07216603 0.081909254
000030 3a 7f a8 bd ef 4b 24 3e 6e df 1a be 6c 91 3d 3b
       -0.082273915 0.16044591 -0.15124294 0.002892579
000040 8d 42 31 3e 02 ed 68 bd f9 7a f2 3d 84 cf 48 be
       0.17310543 -0.056866653 0.118398614 -0.19610411
000050 b5 50 26 3e 5f a3 90 3d 6c 02 ab 3d dc c6 79 bd
       0.16241725 0.070624106 0.08350071 -0.060980663
000060 b1 d0 15 be 90 a2 43 ba 22 2e 27 3e 21 30 31 3e
       -0.1463039 -0.00074628834 0.16326192 0.17303516
000070 98 d0 a6 bc 80 4d 3a 3d 2e bb 22 3e cc a3 d3 bd
       -0.020363137 0.045484066 0.15891716 -0.10333976

blocks.0.layer_norm.weight f4 [32]
000000 2d 4a 96 3f 6e 51 88 3f 06 4b a1 3f 99 67 89 3f
       1.1741387 1.064985 1.260102 1.073474
000010 6e d2 8c 3f 7d e7 91 3f b7 d0 a0 3f f2 cb a5 3f
       1.1001718 1.139877 1.2563695 1.2952864
000020 2a e0 83 3f ed 20 9d 3f 24 d4 ad 3f 31 b2 82 3f
       1.0302784 1.2275673 1.3580365 1.021063
000030 d8 b1 8d 3f 71 b0 8a 3f 36 3e 8c 3f 96 17 98 3f
       1.1069899 1.0835096 1.0956485 1.1882198
000040 36 5a a0 3f b1 20 7b 3f c2 2d 78 3f fe 98 87 3f
       1.252753 0.9809676 0.9694482 1.0593565
000050 3b 22 b2 3f 1b 29 8d 3f 2f c6 a8 3f 92 5f 62 3f
       1.3916696 1.1028169 1.3185481 0.8842708
000060 41 e5 75 3f 07 f9 98 3f 49 ad b1 3f fc be 9c 3f
       0.9605294 1.1950997 1.3881007 1.2245784
000070 10 6b 9d 3f c0 86 a5 3f b7 99 9f 3f 4a 09 75 3f
       1.2298298 1.2931747 1.2468785 0.957173

blocks.0.layer_norm.bias f4 [32]
000000 83 5a e5 3d 38 3c 8e 3d 34 c2 0d 3e e4 a2 5a 3b
       0.11198904 0.069450796 0.13843614 0.003336125
000010 40 b6 80 3d e3 e6 a1 3d ff 4e 83 3e 2b 43 8e 3e
       0.062847614 0.07905366 0.25646207 0.2778562
000020 de da 43 3d a1 63 2a 3e ed 1a 96 3e 7e 18 76 3c
       0.04781615 0.16639568 0.29317418 0.015020488
000030 c1 56 92 3d b7 33 9f 3d 48 10 0c 3d ef 22 e5 3d
       0.07145453 0.07773536 0.034195215 0.11188304
000040 99 b5 83 3e 72 fa 50 bc 4c 0b 9b bd fe ee 07 3d
       0.25724486 -0.012755023 -0.07570514 0.033186905
000050 68 cf 9d 3e 26 f7 66 3d 95 ef 8c 3e 8b 49 f1 bd
       0.308223 0.056388043 0.27526537 -0.11781605
000060 69 d7 83 bd 22 68 c1 3d 77 89 a2 3e 25 91 80 3e
       -0.064375706 0.0944369 0.31745502 0.25110736
000070 07 c9 78 3e 0c 6b 8b 3e 0c 9f d8 3d d6 6c 6a bd
       0.24295436 0.27230108 0.10577211 -0.0572327

last_layer.weight f4 [1, 32]
000000 91 9b 09 3e 4e b9 14 3d e3 29 94 3e 22 50 c6 3d
       0.1343825 0.036309533 0.28938207 0.09683253
000010 ab 07 c5 3d 2e 11 8c 3e 43 7e aa be 98 f0 a4 be
       0.09620603 0.27356857 -0.33299455 -0.32214808
000020 4c b8 2e 3d 0d 36 55 3e f6 c5 ac be 34 a2 fe 3c
       0.042656228 0.208214 -0.33744782 0.031083204
000030 02 e3 78 3e b1 80 26 3e f3 07 b6 3d f9 b4 9c 3e
       0.24305347 0.1626003 0.08888235 0.3060682
000040 33 ea aa be b9 00 91 bd bb da b2 3b 7f bd ba 3d
       -0.33381805 -0.07080216 0.0054582036 0.09118175
000050 af e3 b4 be fc 14 36 3e e6 c5 ac be 30 cc cc bc
       -0.3532996 0.17781442 -0.33744735 -0.024999708
000060 f2 ab 61 3d ef 94 93 3e 30 b6 b6 be 28 7e b6 be
       0.05509562 0.28824565 -0.35685873 -0.35643125
000070 c8 04 ba be 67 a3 a5 be b7 a8 52 3e 49 31 35 bd
       -0.36331773 -0.3235123 0.20572172 -0.044236455
